backend/results/fcnnModel.pth (torch, 92572 bytes, 6 tensors)

fc1.weight f4 [28, 784]
000000 02 b8 09 bd cc 75 af 3c e4 c1 f0 bb 0c d8 94 3c
       -0.03362275 0.021418475 -0.0073473323 0.018169425
000010 88 b0 a2 3b 70 4b 8f bb b8 4b 22 3c e0 ed e6 3a
       0.004964892 -0.0043730065 0.009905748 0.00176185
000020 f0 b5 55 3c e0 07 64 bc f0 a5 2a bb 20 b7 52 bb
       0.013043866 -0.013917893 -0.0026038848 -0.0032152608
000030 86 eb d1 3d b6 06 c7 3d 96 c1 ff 3c 38 17 36 3c
       0.10250001 0.09718077 0.031220239 0.011113934
000040 2e e9 59 bc ac b3 b0 bc 80 28 c4 bb 5c 65 7c bc
       -0.013300223 -0.02157005 -0.0059862733 -0.015405025
000050 18 82 3b bc 00 24 e0 3a f2 68 ae 3c f8 05 9f 3c
       -0.011444591 0.0017100573 0.021290276 0.019412026
000060 72 00 0f bd fc 5e b5 3c c0 77 23 3c 97 c2 0a 3d
       -0.034912534 0.022140019 0.009977281 0.03387698
000070 5a 1d c1 3c 54 49 05 bd f6 16 0b bd da 1d 8d bc
       0.023573566 -0.032540634 -0.033957444 -0.017226148
000080 89 74 00 3d f0 ee c2 bb f7 e6 68 3e 6d 7b 4c 3e
       0.031361137 -0.0059488937 0.22744356 0.19968958
000090 61 65 16 3f e6 89 46 3e 15 4f 11 3f f7 4c 1f 3e
       0.5874844 0.19388542 0.56761295 0.15556704
0000a0 b3 b2 38 3e e6 29 8e 3e 88 d0 97 3e 97 f6 12 3e
       0.18036918 0.2776634 0.29651284 0.14351879
0000b0 cb b7 02 3d d7 dc eb 3e 9a 54 8c 3e 62 cb 99 3e
       0.03191356 0.46066925 0.27408296 0.3003798
0000c0 51 37 9b 3e 1e a3 11 3e c3 23 89 3e 75 95 85 3e
       0.3031564 0.1422238 0.26785097 0.2609059
0000d0 20 30 db ba 58 49 c3 bc 3a 2a b2 3c 70 9a 35 3c
       -0.0016722716 -0.023838684 0.02174865 0.011084184
0000e0 bc 1f bd bc c8 09 be 3c e2 9e b1 3c 75 bd 01 3d
       -0.023086421 0.023198023 0.021682207 0.03167482
0000f0 5f 84 dc 3c d4 a2 c0 bb 96 cc db 3e 3a dc 4c 3e
       0.026918588 -0.0058787856 0.42929524 0.20005885
000100 89 c1 37 3e 12 44 e3 be 46 fc 2d be a2 1c 34 bf
       0.17944922 -0.4438787 -0.16990766 -0.7035619
000110 91 d6 15 bf 9a 3d 41 bf 58 14 5b 3e fc 1f c8 be
       -0.5853053 -0.7548462 0.2139448 -0.39086902
000120 6c 4c 83 be 0c 27 5f bd 86 e2 8f 3d cf 05 38 3e
       -0.25644243 -0.054480597 0.07025628 0.17970966
000130 e1 d2 49 3e 0c 15 41 3e 96 02 82 3e be a6 e5 3e
       0.1970935 0.18855685 0.25392598 0.44853777
000140 b4 39 3e 3e 16 e2 55 3d 9d 0b 02 bd a2 ec d4 3c
       0.185767 0.052217565 -0.031749357 0.025991742
000150 38 88 ad bb 16 8f a4 3c 35 c9 b1 3d 60 64 db bc
       -0.0052957796 0.02008776 0.08680955 -0.026781261
000160 c0 1b eb 3b b1 f1 26 3e 78 ab c0 3d 36 e4 6b 3f
       0.007174939 0.16303135 0.09407705 0.921451
000170 a0 cb d0 3f e6 e4 ea be 5c 36 36 bf c1 fc b6 3b
       1.6312141 -0.4587776 -0.71176696 0.00558433
000180 a7 4a fc be dc 3e 01 3f 7b 8c 65 bf b8 7b a8 bf
       -0.49275705 0.5048654 -0.8966748 -1.3162756
000190 57 94 b3 bf 06 0f 37 bf f1 32 25 be 00 2c 10 be
       -1.4029645 -0.715073 -0.16132714 -0.14079285
0001a0 63 91 44 be f9 44 24 3e d3 15 08 3e 29 62 a8 3d
       -0.19196086 0.16041936 0.13289575 0.082218476
0001b0 05 7f 1e 3e ae 87 49 3d d0 51 92 3b 66 55 da 3c
       0.15478142 0.04920166 0.004465319 0.02665205
0001c0 f2 f2 d3 3c b2 c1 b5 3c d8 46 5c be 93 ae d2 bc
       0.025872681 0.022187088 -0.215114 -0.02571801
0001d0 c6 19 06 3f 88 7d c0 3a 7f 37 d4 3e e8 18 e3 3d
       0.5238308 0.0014685849 0.4144859 0.11088735
0001e0 dd 94 7b 3e 03 30 68 3e d6 a4 2d 3f f5 6a 9b be
       0.24568506 0.22674565 0.67829645 -0.3035504
0001f0 db 4c 3f bf 72 d3 90 bf c7 83 66 bf c5 eb 2b bf
       -0.7472665 -1.1314528 -0.90044826 -0.6715663
000200 df 56 91 bf 3c 02 8e bf 9d c1 94 be 13 b9 79 be
       -1.1354636 -1.1094432 -0.29053965 -0.24387006
000210 a2 53 bb 3b 01 fd 90 3e 5d 4e c4 3d ec a0 c1 bd
       0.005716757 0.28318027 0.09585259 -0.094545215
000220 01 d2 8a bd 20 c7 61 3c 1a 13 49 3d a0 13 56 3c
       -0.06778336 0.013780385 0.049090482 0.013066202
000230 38 18 35 3c 3c 7f 04 bc f0 e4 60 3c 4c 16 de 3e
       0.0110531375 -0.008086976 0.013726458 0.43376386
000240 0f b3 90 3f 9e 88 3a 3f 87 6b 8f 3e 27 6a 8f bd
       1.1304644 0.7286471 0.28011724 -0.07002669
000250 79 7e 03 3e 10 b4 77 3e 55 9b c8 3d 81 e3 fb 3d
       0.12841214 0.24189782 0.09795252 0.12299252
000260 f8 ab ae 3e 20 63 fd bd 3b cf f0 3d 43 d9 6f be
       0.34115577 -0.12372422 0.11758276 -0.23422723
000270 44 d3 81 be e9 57 0b bf 5a 71 8d 3e 64 de 34 3d
       -0.25356495 -0.54431015 0.27625543 0.0441574
000280 2f 22 76 bd 73 6d c4 be ca 13 fe bd 9f 0f 64 bf
       -0.060091194 -0.38364753 -0.12406118 -0.89086336
000290 8e 3d a0 3d 80 77 6f 3e 43 93 f4 3c 50 3a 7a 3c
       0.078242406 0.2338543 0.029855376 0.015272692
0002a0 80 cc d5 3b 38 8a 10 3c 3f 49 f6 3e d2 32 c3 3f
       0.0065246224 0.008822016 0.48102757 1.5249884
0002b0 cd 36 de 3f 7f b8 10 bf cd 75 a7 bc b8 4f 0e bf
       1.7360474 -0.5653152 -0.020441914 -0.5559039
0002c0 ef 54 02 3f 27 fa a8 3e d0 b1 cc 3e 0d 38 f7 3e
       0.5091085 0.3300335 0.3997941 0.4828495
0002d0 43 ca 24 3f 1a 1e 3a 3f c5 32 88 3f 5e 4e dc 3e
       0.64371127 0.7270218 1.0640494 0.4302854
0002e0 1a b1 9a 3d 79 08 cf bd 29 75 a3 be d3 1d 85 bf
       0.07553311 -0.10109038 -0.31925324 -1.0399727
0002f0 11 f4 06 bf 99 b1 4a be ff a7 46 bf 6d 76 75 bf
       -0.52716166 -0.1979431 -0.7760009 -0.9588383
000300 88 94 c1 be ae 83 02 be e9 2a 70 bd 14 2e ae be
       -0.37808633 -0.12745544 -0.058634672 -0.3401953
000310 38 b7 0d 3c 61 1d 94 3e 91 c5 a4 3e 22 e0 92 3f
       0.00864964 0.28928664 0.3218198 1.147465
000320 69 0a c9 3e b9 19 22 bf 3c d6 cc be 89 fd c1 be
       0.39265755 -0.633205 -0.40007198 -0.37888744
000330 4b eb 64 3e 3f e7 0e 3f 6d 93 19 3f d1 13 47 3f
       0.22355382 0.55821604 0.5999058 0.7776461
000340 32 50 02 3f 9a fb 86 3f b4 d7 60 3f 7a 5b e6 3e
       0.5090362 1.0545533 0.87829137 0.44991666
000350 4a c4 cb bd 51 4c e3 be fe 75 78 bf cd d2 8d bf
       -0.099495485 -0.44394162 -0.9705504 -1.1079956
000360 59 f8 9a bf 73 1b 81 bf e5 2a ac bf 5b a9 bf bf
       -1.210704 -1.0086502 -1.345059 -1.4973558
000370 3e 6b b6 bc 4a f2 10 bf 92 92 02 bf a6 a5 8f 3e
       -0.022267934 -0.56619704 -0.510049 0.28056067
000380 8e 29 a1 3d fc ca f5 3e ea f5 37 3f a8 05 da 3e
       0.07869254 0.48006427 0.7185961 0.4258244
000390 57 f6 06 3f 39 ba 35 bf d2 e8 ed be 07 7a f7 bd
       0.52719635 -0.7098728 -0.4646669 -0.12083822
0003a0 7d e3 49 3e fe 3f 1c 3e 0b ef bf 3e a6 e9 3a 3f
       0.19715686 0.15258786 0.37487063 0.7301277
0003b0 54 ac 1a 3f 6e 6f 84 3e 9e 2e 2f 3f dd 2c 6a bc
       0.604192 0.25866264 0.6843051 -0.014292923
0003c0 00 6c 6d 3c 9f e6 4d be 85 7a 67 be 5e 2f 8b be
       0.014491081 -0.20107506 -0.22605331 -0.27184576
0003d0 91 ac 73 bf 54 3a b0 be ec c9 ef be 5c 3f 82 bf
       -0.9518519 -0.344195 -0.46833742 -1.0175586
0003e0 09 cf 1b bf 47 06 6a bf 23 69 11 be f6 34 51 3e
       -0.60862786 -0.9141583 -0.14200263 0.20430359
0003f0 22 f8 c6 3d 96 f7 ec 3e 11 2e 42 3e 08 cf 71 3f
       0.09715296 0.46282643 0.18962885 0.9445653

fc1.bias f4 [28]
000000 b1 cd 3c bf 7c d8 07 3f 97 12 9b bd f3 ab fc bc
       -0.7375136 0.53064704 -0.07571905 -0.03084371
000010 63 af 42 bd 45 aa d3 3d fe 92 d5 3e 7c 3f 29 3f
       -0.047530543 0.10335211 0.4171371 0.66112494
000020 ce 67 e6 3d 23 a3 5c 3e c7 8e cc 3e 9a 58 dd bc
       0.11250268 0.21546607 0.3995268 -0.027019788
000030 49 8c 3b 3f 5f 84 9c bd 65 6b 7e bd 34 84 8d 3f
       0.73260933 -0.07642435 -0.06211414 1.105597
000040 f6 cb 1a 3e ab a4 94 bd 4d d5 87 be 05 a2 46 bf
       0.15116867 -0.072579704 -0.26529923 -0.7759097
000050 16 14 93 be 16 32 97 bd 6b 4d 36 3e db e1 1b 3f
       -0.28726262 -0.073826 0.1780297 0.60891503
000060 23 77 9e bd f3 ee 1e 3e f4 2f 90 be 08 fa 42 3f
       -0.07737567 0.1552084 -0.28161585 0.7616277

fc2.weight f4 [14, 28]
000000 90 87 20 3e bf 04 8b bd 38 3f 24 be 8a 8f 10 be
       0.15676713 -0.067880146 -0.16039741 -0.14117256
000010 30 a9 b0 be 65 ee 0e bd 08 d9 2f 3e fc fd 88 3d
       -0.3450408 -0.03489532 0.17172635 0.06689069
000020 8a 9f 3c be 51 18 f1 3e b5 ee c6 bd 0b 64 91 3e
       -0.18420234 0.47088864 -0.097134985 0.2839664
000030 e3 dc 26 be e9 03 05 3f fb f2 ae bd 97 63 8e be
       -0.16295199 0.5195909 -0.085424386 -0.27810356
000040 56 67 23 bf 41 bd a4 3d 12 4b 27 3f dc 83 15 3d
       -0.63829553 0.0804391 0.65348923 0.036502704
000050 bd d9 0e 3f e3 38 3c bc 33 5e 51 bd 6c 20 17 3e
       0.5580099 -0.011488172 -0.051115226 0.14758462
000060 ef d6 ee 3e 69 31 0e bf 1b a6 18 3f 62 3c 25 3f
       0.46648356 -0.55544144 0.59628457 0.6454526
000070 53 f2 02 be 72 9b 5d 3e 12 97 60 bd 90 cd 59 3e
       -0.12787752 0.21641329 -0.054831572 0.21269822
000080 29 31 3d 3e ef 19 61 3a cc 73 0b 3f e1 d9 aa 3f
       0.18475784 0.0008586933 0.54473567 1.3347741
000090 f8 1e 2c 3e 0e 28 30 be 85 dc f2 3e fe 5b 05 3e
       0.16808689 -0.1720278 0.47433868 0.13023373
0000a0 e3 dc 01 bf c9 e5 41 3f 51 a9 c6 bd 1a 16 c5 3e
       -0.5072767 0.7574125 -0.09700263 0.38493425
0000b0 2d ae e3 3d b3 38 a6 3d fa 7e 1e 3c 9d 62 a9 3d
       0.11117206 0.08116283 0.009673828 0.08270762
0000c0 ad ef 94 be 43 45 7b 3e 9a 3b 9d 3d 27 f1 6d 3e
       -0.29089108 0.2453814 0.07677384 0.23236524
0000d0 ad 4a 96 be b4 c4 4d be b4 34 5a 3e 51 5a a9 3e
       -0.29353848 -0.20094568 0.21309167 0.33076718
0000e0 dd 43 ee 3e 2f 36 11 be 55 c3 ab 3d 2f 9f ab 3d
       0.4653615 -0.14180826 0.08386866 0.08379971
0000f0 83 65 05 3f 19 bf 8d bd b1 f8 9f 3e cc c3 11 bf
       0.5210802 -0.069212146 0.31244424 -0.5693939
000100 8f 2a d3 be be 27 f6 bd 36 75 7d 3e 81 36 33 bf
       -0.41243407 -0.12019299 0.24751744 -0.7000504
000110 4c f9 a9 3d c7 7e bc be 58 9e 91 3d b9 56 2f 3e
       0.08299503 -0.36815473 0.0711028 0.17122926
000120 91 50 d5 be cc af ee 3d 9a 2e a3 be 5c fd d3 3e
       -0.4166303 0.11654624 -0.31871492 0.41404235
000130 f9 78 e9 3e 22 91 93 3e 47 2b ec bd 04 78 f0 bd
       0.45600107 0.28821665 -0.11531692 -0.11741641
000140 ea 22 a3 3e 85 9e 8a 3e 7f 8e 77 3d 0c 12 00 bf
       0.31862575 0.27074066 0.06043863 -0.5002754
000150 e4 93 ef 3d 42 cc c1 3e 64 ea c4 bc 86 11 fe bd
       0.1169813 0.3785115 -0.024037547 -0.12405686
000160 da d6 69 3d 1b ce 81 be 89 83 98 be e7 64 41 bc
       0.057089664 -0.25352558 -0.29787853 -0.011803842
000170 42 26 bd bc 04 ea 3f 3f af 88 29 3f 33 67 f6 3c
       -0.023089532 0.74966455 0.6622419 0.030078506
000180 c1 b5 ed 3d e6 fc 92 be e5 1f a5 3c f6 27 1d 3f
       0.116069324 -0.2870857 0.02015681 0.613891
000190 f6 3f 02 3f ef b2 5e bd f8 41 28 bd fb b7 c1 be
       0.50878847 -0.054369863 -0.041078538 -0.37835678
0001a0 31 0b f3 bc 1b 54 99 bd 43 96 af 3e 92 9d 31 be
       -0.029668422 -0.07486745 0.34294328 -0.17345265
0001b0 53 d5 31 3f 01 13 2a 3e a5 c2 89 3e 19 9f 80 3e
       0.6946613 0.16608812 0.26906314 0.25121382
0001c0 d1 2f 1b be 28 3b dd be 60 65 2c bd c0 02 9e bb
       -0.1515496 -0.43209195 -0.042088866 -0.004822105
0001d0 67 1c 4f bc bd 39 c0 be b3 fc 06 bf 5a 0f 9d be
       -0.012641049 -0.3754405 -0.5272934 -0.30675775
0001e0 16 22 87 3f 8c 48 b6 be 55 47 e2 3c ec a5 ed be
       1.0557277 -0.35602224 0.027621904 -0.4641565
0001f0 eb 7c 56 bf aa 58 0f bf d4 8d 45 3e 6c 08 85 3f
       -0.8378436 -0.55994666 0.19292384 1.0393195
000200 30 73 04 be e5 88 d8 bd c1 93 b0 be d5 39 fe be
       -0.12934566 -0.105729856 -0.34487727 -0.49653497
000210 1f 53 32 bf 6e eb 60 bf d3 36 66 bd 22 be 3d be
       -0.6965808 -0.8785924 -0.05620463 -0.18529561
000220 94 1f 9c be 2e 53 8f 3e 76 51 08 bf b2 3d 9b 3e
       -0.30492842 0.2799315 -0.532493 0.30320507
000230 2b 20 eb bd f6 7c 90 be 27 d9 3c be 38 92 a7 bc
       -0.11480745 -0.28220338 -0.18442212 -0.020455465
000240 91 01 61 be 6f a0 b7 be 70 8a f8 be 85 72 0f bf
       -0.21973254 -0.3586459 -0.4854312 -0.5603412
000250 20 16 57 3f 38 40 b5 be 05 65 bd 3d 33 69 35 be
       0.84018135 -0.35400558 0.092477836 -0.17715912
000260 96 be 22 bf 6f 30 a7 be 92 3f f3 bd 24 7d a4 be
       -0.6357206 -0.3265414 -0.118773594 -0.32126725
000270 2a cd b7 be 3f b1 37 be 41 34 27 bd 34 5b 06 bf
       -0.35898715 -0.17938708 -0.040821318 -0.52482915
000280 47 47 00 be a1 ac a6 bd 8a 9b 1e be 7f e4 9d bd
       -0.1252719 -0.08138395 -0.15489021 -0.07709598
000290 de a0 7f bd af 74 71 bd f3 6a 4d bf ce db 3c be
       -0.062409274 -0.05894917 -0.80241317 -0.18443224
0002a0 98 6d 8b 3e b2 ea e2 be 5f 9a ff 3d 9a 94 bd 3d
       0.2723205 -0.44319683 0.12480616 0.09256859
0002b0 ea 0f d9 bd a1 fe f5 3d e6 c8 60 bf 2d 4d 9a 3d
       -0.105987385 0.12011457 -0.87806547 0.07534251
0002c0 10 18 37 bf 2d f9 b8 3e 46 97 0a bf a9 06 cc 3e
       -0.7152109 0.36127606 -0.54137075 0.3984883
0002d0 bc c5 85 3e cf 09 33 bf f1 37 f5 bd 2e 1d 4a be
       0.26127422 -0.6993684 -0.119735606 -0.19737694
0002e0 a2 4d 42 3e 1c 96 f7 3d fd 62 c0 3e 68 ce a6 3e
       0.18974927 0.12089178 0.37575522 0.3257935
0002f0 9c 34 f5 bd ef 64 e9 3e c7 42 1c 3f 58 34 af be
       -0.11972925 0.4558482 0.61039394 -0.34219623
000300 9a 4a c5 bd 63 d2 68 bc dc d7 90 3e 99 ab 72 bf
       -0.0963337 -0.014210316 0.28289688 -0.9479309
000310 7f b2 af be bc ec 01 be 61 f3 5f bd 85 0d a2 bc
       -0.3431587 -0.12687963 -0.054675464 -0.019781837
000320 b9 89 d3 3d fe 56 30 3e 0d 66 88 3d 34 ff 17 bf
       0.10329003 0.17220685 0.0666009 -0.59373784
000330 ba 30 4e bf 67 59 1a 3f 71 66 18 bf dd 40 96 be
       -0.805431 0.6029267 -0.59531313 -0.29346362
000340 32 36 f2 3e 4f 88 a2 3e 97 2c c7 3b 79 ea 48 be
       0.47306973 0.3174462 0.0060783136 -0.19620694
000350 d1 7f 95 3e 01 5c 29 3e bf 1e 9c be 95 f9 97 be
       0.2919908 0.16539003 -0.30492207 -0.29682603
000360 ea cc bb bd 1d 63 2a 3e 24 e4 3e be 14 02 f6 3e
       -0.09169944 0.16639371 -0.18641716 0.4804846
000370 a3 d0 97 bd e2 fd 71 bf 9c 2f 84 bf d4 74 5f 3e
       -0.07412841 -0.9452802 -1.0327029 0.2182191
000380 9d 40 a2 be 0b 41 9c bc 8c 15 e7 3d e6 be 36 3e
       -0.3168992 -0.019073984 0.112834066 0.1784626
000390 c0 87 48 3e 8c 12 d5 3e 97 b3 a8 be d2 5a f3 3e
       0.19583035 0.41615713 -0.32949516 0.47530228
0003a0 ad 3d 2b bd c5 de cb be 99 db 3a bf 72 e0 be 3e
       -0.041806865 -0.39818397 -0.7299133 0.37280613
0003b0 50 6a 02 3e 59 fc 10 3f 93 b6 f1 3a d8 44 45 bf
       0.12735868 0.5663505 0.0018441252 -0.7705817
0003c0 33 b7 4c be 16 8a be 3c 4c 55 f5 3e 80 3b 86 3d
       -0.1999176 0.023259204 0.4791664 0.065543175
0003d0 07 d9 ba 3d 2a dd e3 bc 72 0f 11 bd 1e 46 9e 3e
       0.09123426 -0.02781542 -0.03541512 0.3091287
0003e0 58 0b 03 bf f8 bb 8c be f7 aa 4d 3f 04 52 82 3e
       -0.51189184 -0.2748716 0.80338997 0.25453198
0003f0 e5 a1 99 be d5 6d a4 bc 40 77 c4 bc 34 93 0a 3d
       -0.30006328 -0.020071903 -0.023982644 0.03383179

fc2.bias f4 [14]
000000 4b 87 25 bf 29 3a 11 be cc f1 15 3f 5c 30 97 be
       -0.64659566 -0.14182343 0.5857208 -0.29529083
000010 a3 69 23 bf 18 6a 19 bf 9e 3b 63 3e 51 b6 58 3f
       -0.63833064 -0.5992751 0.22190711 0.8465319
000020 8e fd 58 be 4a 27 49 bf 4c 3c 4c be df f8 eb bf
       -0.21190473 -0.78575575 -0.19944876 -1.8435324
000030 d0 a8 58 be 21 d8 44 3f
       -0.21158147 0.76892287

fc3.weight f4 [10, 14]
000000 7b f7 53 bf 65 9b a6 bd 24 0b 7e 3e db 54 63 be
       -0.827995 -0.08135108 0.24808937 -0.22200339
000010 d1 dc 1b ba 3f a4 a1 3e 8a 49 87 be 57 db 87 be
       -0.0005945685 0.31570622 -0.26423293 -0.2653453
000020 9b 88 47 bc a6 69 2a bd fa 13 40 be 0f 92 c4 3c
       -0.012178565 -0.04160466 -0.1875762 0.023995427
000030 d3 56 00 3f c9 7f 54 be d4 63 f7 3e fb 77 45 3d
       0.50132483 -0.20751871 0.4831835 0.048210125
000040 f9 a4 07 bf 85 6a a6 bd 50 df 97 bf b2 1b 20 bf
       -0.52986103 -0.08125786 -1.1865025 -0.6254226
000050 96 7a 82 be fe 47 9b be 6a e0 e7 3c 88 ca fc be
       -0.2548415 -0.30328363 0.028305251 -0.4937327
000060 50 73 8c bf 38 22 93 bf 24 b5 e4 be 1d da f0 3e
       -1.097269 -1.1494818 -0.4466945 0.47041407
000070 84 64 11 3d 34 3a 1f 3e a0 9f c0 bc cd 01 c9 bd
       0.03549625 0.15549546 -0.023513615 -0.098147966
000080 cf 39 ae be a7 73 6b be 80 84 96 bd f9 0f 8d bc
       -0.3402848 -0.22993337 -0.07349491 -0.01721953
000090 fc 02 ee 3e 63 62 1d bf 8e c6 f8 bc 54 9c 89 be
       0.46486652 -0.6147825 -0.030368116 -0.2687708
0000a0 92 b3 63 3e 2b 82 c6 be 25 2a dd 3e 85 3d 70 be
       0.2223647 -0.38771185 0.43196216 -0.23460968
0000b0 68 c2 a6 3d 26 4a 12 3e bd 6d c8 be 18 97 fc be
       0.08142549 0.14286098 -0.39146224 -0.49334025
0000c0 8e f5 5d 3e 1a 78 81 be 06 c1 91 bc e7 a9 19 be
       0.21675703 -0.25286943 -0.017792236 -0.15006219
0000d0 04 b8 15 bd a9 97 ea be cf 44 49 3c fe 33 6f be
       -0.036552444 -0.45818833 0.012284472 -0.23359677
0000e0 56 db b9 3c 95 35 9d 3d 86 04 bc be 82 aa 03 3e
       0.022687595 0.076762356 -0.367222 0.12858012
0000f0 3e 3c c2 bf a1 76 bd be 4c 71 9c be 11 2a 08 3f
       -1.5174634 -0.3700457 -0.3055519 0.5318919
000100 75 53 3b bd f6 84 b1 3e 95 96 82 3d c0 dd b3 be
       -0.045733888 0.34671754 0.063763775 -0.3513012
000110 bd 39 06 bd be 31 0b 3d fe 52 7a bb 2f a5 94 3c
       -0.032769907 0.033982985 -0.003819644 0.018145172
000120 62 16 b1 3e 65 8c 02 3f 41 c6 fe bd c3 14 04 be
       0.3458739 0.50995475 -0.12440158 -0.12898545
000130 9f ee 7a be 83 b7 8c be f7 c5 4f be 4c 4e e6 bd
       -0.24505089 -0.27483758 -0.20290361 -0.11245403
000140 1e 96 ef bc a7 14 3f 3e 1d 5d ce be 04 4e 0e 3e
       -0.029246386 0.18660222 -0.40305415 0.13896948
000150 4b 28 e1 be 46 bd 01 3f 90 53 a4 3e 6b 9a 4c be
       -0.43976054 0.50679433 0.32095003 -0.19980781
000160 7a 61 f9 be 14 a9 82 bf 27 dc 63 bf 86 6a a2 3c
       -0.4870718 -1.0207849 -0.890078 0.019826185
000170 4e 5c 9c be c7 2a 81 be d1 bc 67 bf 9a 5c 24 bf
       -0.30539173 -0.2522795 -0.90522486 -0.642038
000180 a7 f5 de be 19 1d 1a 3b 54 49 c3 bd c6 63 1e 3e
       -0.43546793 0.0023515879 -0.095354706 0.15467748
000190 0e 07 d8 be a8 f9 d4 3e 5f 66 23 bf dc 6b 2f bf
       -0.42192882 0.41596723 -0.6382808 -0.68523955
0001a0 96 c0 ab 3e b6 43 87 be f4 ea 88 3e a6 b1 1c be
       0.3354537 -0.26418847 0.26741755 -0.15302143
0001b0 97 f6 8d 3e c7 64 0e bd a4 71 64 3d 0f 9f 92 bd
       0.27727196 -0.034764078 0.05577244 -0.07159244
0001c0 a1 3c e5 3c 97 40 9e be a9 10 97 3e a4 4d 6b be
       0.027983012 -0.30908653 0.29504898 -0.22978836
0001d0 cb 66 42 bf 98 6a c6 bd 28 cd d1 3d bd 58 31 be
       -0.759381 -0.096883 0.102442086 -0.17319007
0001e0 ad 70 39 3e 95 a7 21 bf a9 aa 91 bf 7e ae db be
       0.18109389 -0.63146335 -1.1380206 -0.42906564
0001f0 3d d9 2e 3c 43 20 e5 3e 94 95 ce bd a7 bd ba be
       0.010671911 0.44751176 -0.100871235 -0.36472818
000200 96 93 de 3d 49 cd 68 3e f7 e9 4d bf 1e 02 01 bf
       0.108679935 0.2273456 -0.8043513 -0.50393856
000210 8d c1 bf 3e 10 90 21 3e 8b 84 c5 be 97 14 db be
       0.37452355 0.15777612 -0.38577685 -0.42789146
000220 3a 7b 13 bc 2e 7d 9a be 7f eb a4 be 16 aa a7 bd
       -0.0090015475 -0.3017363 -0.3221092 -0.08186738

fc3.bias f4 [10]
000000 e9 6f 0c 3f b8 32 f6 bd 42 0b c9 be 9b d3 5c bf
       0.5485826 -0.120213926 -0.39266402 -0.86260384
000010 88 0c 61 3f be b1 7e be a3 ca 16 3e f7 91 19 bf
       0.87909746 -0.24872491 0.14725737 -0.5998835
000020 dd 0c 04 3d 4e cb 56 3f
       0.03223883 0.8390397
