backend/results/fcnnModel.pth (torch, 54620 bytes, 6 tensors)

fc1.weight f4 [16, 784]
000000 02 b8 09 bd cc 75 af 3c e4 c1 f0 bb 0c d8 94 3c
       -0.03362275 0.021418475 -0.0073473323 0.018169425
000010 88 b0 a2 3b 70 4b 8f bb b8 4b 22 3c e0 ed e6 3a
       0.004964892 -0.0043730065 0.009905748 0.00176185
000020 f0 b5 55 3c e0 07 64 bc f0 a5 2a bb 20 b7 52 bb
       0.013043866 -0.013917893 -0.0026038848 -0.0032152608
000030 38 a0 a9 3b 00 9a 15 b9 96 c1 ff 3c 38 17 36 3c
       0.0051765703 -0.00014267117 0.031220239 0.011113934
000040 2e e9 59 bc ac b3 b0 bc 80 28 c4 bb 5c 65 7c bc
       -0.013300223 -0.02157005 -0.0059862733 -0.015405025
000050 18 82 3b bc 00 24 e0 3a f2 68 ae 3c f8 05 9f 3c
       -0.011444591 0.0017100573 0.021290276 0.019412026
000060 72 00 0f bd fc 5e b5 3c c0 77 23 3c 97 c2 0a 3d
       -0.034912534 0.022140019 0.009977281 0.03387698
000070 5a 1d c1 3c 54 49 05 bd f6 16 0b bd da 1d 8d bc
       0.023573566 -0.032540634 -0.033957444 -0.017226148
000080 89 74 00 3d f0 ee c2 bb dc 6a 7a 3c 17 f6 87 bc
       0.031361137 -0.0059488937 0.015284266 -0.016596837
000090 c7 89 0f 3d b4 92 77 bc 16 68 db 3c 00 bb dd 39
       0.035043504 -0.01511066 0.02678303 0.0004229173
0000a0 ba 21 9a bc d6 62 96 3c 85 4d 9b bc e0 17 2c 3c
       -0.01881491 0.018357676 -0.018957863 0.010503739
0000b0 d8 f6 28 bc b8 4d 80 bb 2a a3 0c bd 23 7e 8b bc
       -0.010312758 -0.003915515 -0.034335293 -0.01702792
0000c0 5c c2 9e 3c 24 3c 0e bc 33 b5 11 3d 9a 85 ea 3c
       0.019379787 -0.008681331 0.035573196 0.02862816
0000d0 20 30 db ba 58 49 c3 bc 3a 2a b2 3c 70 9a 35 3c
       -0.0016722716 -0.023838684 0.02174865 0.011084184
0000e0 bc 1f bd bc c8 09 be 3c e2 9e b1 3c 75 bd 01 3d
       -0.023086421 0.023198023 0.021682207 0.03167482
0000f0 f5 00 a4 bc d4 a2 c0 bb 80 5d 35 ba d0 ed aa 3b
       -0.020019988 -0.0058787856 -0.00069185346 0.0052163377
000100 ae 09 de bc 80 9d cf bc 16 c5 a2 3d 18 a8 53 3d
       -0.027104225 -0.025343657 0.079477474 0.05167398
000110 4e b5 9e 3d a5 4c 7e 3d f8 fe 92 3d 94 aa 00 3c
       0.07749425 0.062084813 0.07177538 0.007853169
000120 f4 c1 54 3c e2 07 91 3c 1b 7a 07 bd 2a 44 93 3c
       0.012985695 0.017703954 -0.033075433 0.01797684
000130 ba b6 cd bc 6e bf dc bc 20 57 0e 3b d4 6c c7 bb
       -0.025111545 -0.02694675 0.002171941 -0.0060859714
000140 90 d5 ab 3c 45 70 a9 bc 9d 0b 02 bd a2 ec d4 3c
       0.020975858 -0.020683417 -0.031749357 0.025991742
000150 38 88 ad bb 16 8f a4 3c 48 1d 3c 3c 60 64 db bc
       -0.0052957796 0.02008776 0.011481591 -0.026781261
000160 c0 1b eb 3b a0 8c 0c 3c cc e4 c3 bc 2a d1 8a bc
       0.007174939 0.0085784495 -0.02391281 -0.01694544
000170 fc 84 47 3c d1 14 88 3d c6 bb 37 3d 39 ad 49 3d
       0.012177702 0.066445954 0.04485681 0.049237464
000180 5e f8 bd 3d c8 e4 5a 3d 9c 37 a4 3d 64 5e 7d 3c
       0.09275888 0.05344084 0.08018419 0.015464399
000190 ca 1e bd bc b8 cf f8 bc 03 6b 0c 3d 92 57 6e bd
       -0.02308597 -0.030372486 0.03428174 -0.058188982
0001a0 3b b5 11 bd 67 aa 57 bd fc 31 3c 3c ec 89 da 3c
       -0.035573225 -0.052652743 0.011486527 0.026677094
0001b0 d3 b5 0a 3d 15 25 c2 bc d0 51 92 3b 66 55 da 3c
       0.033864807 -0.023699323 0.004465319 0.02665205
0001c0 f2 f2 d3 3c b2 c1 b5 3c 4e bd d3 bc 93 ae d2 bc
       0.025872681 0.022187088 -0.025847103 -0.02571801
0001d0 5c f0 b0 bc 68 05 93 3b 3f cc 11 3d 8a 92 19 3d
       -0.021598987 0.0044867285 0.035595175 0.037493266
0001e0 14 f7 a1 3d 18 03 25 3d f5 e0 d8 3c 51 e3 56 3d
       0.079084545 0.040286154 0.026474455 0.05246288
0001f0 e7 21 a5 3d 48 e2 be 3d 59 66 a8 bd 77 34 56 bd
       0.08063107 0.093205035 -0.08222646 -0.052296128
000200 00 74 ef bc 89 03 15 bd 51 d0 1a bd 2b 07 0e bd
       -0.029230118 -0.036380325 -0.037796322 -0.034674805
000210 82 74 19 bd 9a 32 50 bd f5 10 c8 bc 7a b0 f5 bc
       -0.037464626 -0.050829507 -0.024422148 -0.029991377
000220 f0 0f 86 bc 68 46 88 bb 13 55 b3 bc a0 13 56 3c
       -0.016365021 -0.0041587837 -0.021891152 0.013066202
000230 38 18 35 3c 3c 7f 04 bc f0 e4 60 3c f8 1b 3d 3c
       0.0110531375 -0.008086976 0.013726458 0.011542313
000240 52 a0 b2 3c c8 07 c5 3c 06 29 46 bc 7d 73 c2 3d
       0.021804962 0.024051562 -0.012094742 0.09494684
000250 b5 2b d9 3c b2 6c 11 3d 46 7f eb 3b de d3 17 3d
       0.026510099 0.03550405 0.007186803 0.037067287
000260 d4 84 20 3d ce 67 37 3d 46 ec 0d bd 92 dd 92 bd
       0.039189175 0.04477673 -0.034649156 -0.071711674
000270 40 9f b1 bd 12 b3 3d bd ab 25 47 bd 55 3c 17 bd
       -0.08672953 -0.046313353 -0.048619907 -0.03692277
000280 55 d7 a0 bd 2b 44 56 bd 82 9e 95 bd 39 6c 8b bd
       -0.07853571 -0.052311104 -0.073056236 -0.06807751
000290 40 47 b5 bd b7 57 85 bc 5c 34 33 bc 50 3a 7a 3c
       -0.088514805 -0.016277177 -0.010937776 0.015272692
0002a0 80 cc d5 3b 38 8a 10 3c 2f 02 12 3d f7 92 0e 3d
       0.0065246224 0.008822016 0.035646614 0.034808125
0002b0 2a 8c c7 3c 60 10 95 3a fe 65 ca bc be a5 e4 3c
       0.024358828 0.0011372678 -0.024706837 0.027911063
0002c0 28 03 8b bb f8 39 bf bd 80 69 50 bc 37 f7 83 3c
       -0.0042423196 -0.093372285 -0.012720466 0.016109092
0002d0 dc ff dd bb d6 c4 75 bd 20 08 fd bc 56 c6 c7 bd
       -0.0067748856 -0.06000217 -0.030887663 -0.097546265
0002e0 3b f3 7a bd 8e 8a a2 bd 0f a4 41 bd 75 25 97 bd
       -0.06126712 -0.079365835 -0.0472756 -0.07380191
0002f0 8a 58 9d bd 28 b2 6d bd d3 15 0c bd 9a 70 ae bd
       -0.07682903 -0.05803123 -0.0342005 -0.08517571
000300 43 48 31 bd c2 f5 bb 3c a7 18 0f 3d a0 c7 cc bc
       -0.043281805 0.022944335 0.03493562 -0.024997532
000310 38 b7 0d 3c ce 55 d8 bc 6e c8 f9 3c f5 39 3d 3d
       0.00864964 -0.026408102 0.03049108 0.04619785
000320 25 0b a7 3d a1 53 7a 3d 14 94 6a 3d 11 8f 7a bd
       0.081564225 0.06111491 0.057270125 -0.061171595
000330 07 1b 5d bd 23 ae b4 3b 0d f5 42 bb 22 26 a7 bd
       -0.053980853 0.005513923 -0.0029748112 -0.0816157
000340 0d 06 19 bd f8 ce 88 bd 90 00 35 bd 66 41 1b bd
       -0.037359286 -0.06680101 -0.04418999 -0.037904166
000350 7f d8 09 bd 26 c6 af bd 16 1b 96 bd e9 ff e9 bc
       -0.033653732 -0.08582716 -0.07329385 -0.02856441
000360 51 b3 b2 bd e0 89 e2 bc 7d 84 b4 bd 6f 83 ae bd
       -0.08725608 -0.027653635 -0.08814333 -0.08521163
000370 58 77 2e bd 9a 35 d2 bc 80 0e 06 bc e6 d7 d4 3c
       -0.042594284 -0.025660325 -0.008182168 0.025981855
000380 1a be e7 3c bf 59 0a 3d a0 49 58 3d f6 44 04 3d
       0.02828889 0.033776995 0.05280459 0.03229233
000390 c4 00 c3 3d 10 cf 56 3d d4 c8 39 3d 1d 0d 52 bd
       0.095216304 0.052443564 0.04535754 -0.051282037
0003a0 ad a9 0f 3d 60 56 34 3d c6 24 60 3c a0 02 b5 bd
       0.035073925 0.044027686 0.0136806425 -0.08838391
0003b0 26 11 b7 bd cb 65 81 bd 0b 8a 38 bd 5d 71 89 bd
       -0.08938818 -0.063182436 -0.045053523 -0.067110755
0003c0 c1 14 a0 bd bc a3 72 bd c2 bd bf bd 92 af ae bd
       -0.078164585 -0.05923818 -0.09362365 -0.08529581
0003d0 79 ae ab bd f8 05 fb bc 94 0f ea bc 4f d5 93 bd
       -0.083828874 -0.030642495 -0.028571881 -0.0721842
0003e0 cd 6a 6f bd e9 bc 34 bd 78 38 8c 3b 83 81 92 bc
       -0.058451463 -0.04412547 0.0042791925 -0.017884022
0003f0 b8 bc a8 3c 8a da b3 3c 55 7e 6d 3d a1 f6 63 3d
       0.0205978 0.021954793 0.057981808 0.055655126

fc1.bias f4 [16]
000000 d0 42 40 bd 72 a2 ad 3e 03 37 14 3f 77 87 09 be
       -0.046938717 0.33912998 0.5789644 -0.13430582
000010 0e 79 93 bd 56 da d5 3e 88 8c 80 be 3a 87 2c bf
       -0.07200824 0.4176814 -0.25107217 -0.6739384
000020 83 e4 2e 3f 19 24 c7 be 70 fb 8c 3e e3 7b 86 bd
       0.6831743 -0.38894728 0.27535582 -0.06566598
000030 56 01 1a bd 3b 57 0d bd 0e dd 93 3e 5a 23 b7 bc
       -0.03759893 -0.034507018 0.2887959 -0.022355724

fc2.weight f4 [16, 16]
000000 36 a4 a7 3c 2d 1c 92 3e 29 30 06 bf 78 46 9e be
       0.020464044 0.2853712 -0.52417237 -0.30913138
000010 71 ed 84 be 95 fb 10 bf 9a 44 c2 3e 46 a4 59 be
       -0.25962403 -0.56633884 0.37942964 -0.21254072
000020 71 69 27 3e be 82 98 be 2f 14 3a 3f 4b 8c a2 3d
       0.16348816 -0.29787248 0.7268705 0.07936915
000030 fb 42 e9 3d 4f 85 00 3c 22 56 1b be c7 55 5a 3e
       0.11389729 0.007844283 -0.15169576 0.21321784
000040 79 89 a1 3c 8e 19 2e bd 55 b8 af be 99 3e 0b bd
       0.019718872 -0.04250484 -0.34320322 -0.033995245
000050 5f 18 f0 3c b1 7e 07 be fb aa 9f 3d 37 51 26 3e
       0.029308496 -0.13231923 0.07796284 0.16241919
000060 41 bf b1 3e 63 93 b8 bd 43 0a 83 be d9 9e 76 3d
       0.34716228 -0.09012487 -0.25593767 0.060210083
000070 b3 c1 59 be 19 dd 3a bc 20 d6 fd 3e 0b cd 2f 3f
       -0.21265297 -0.011405253 0.49577427 0.68672246
000080 5f 3a b3 bc dd 3d a6 3c 46 a3 53 bc fe 80 8e bd
       -0.02187842 0.02029317 -0.012917345 -0.06958197
000090 56 3c 5e 3e 9a 6d 9f 3d ad d6 5e be ae 51 99 be
       0.21702704 0.07784577 -0.2176158 -0.2994513
0000a0 96 1a a1 3e c6 01 f1 3e 0e a3 a2 3e 52 9a 21 3d
       0.31465596 0.47071666 0.31765026 0.039453812
0000b0 3e 74 e3 bd bc 5d 24 bb 98 95 f6 be 2b b2 eb 3e
       -0.11106156 -0.0025080284 -0.48161006 0.4603437
0000c0 70 de 9a 3c b2 2a 5a be 97 43 8f 3e 21 fa 27 be
       0.018904895 -0.2130535 0.27981254 -0.1640401
0000d0 d6 2e 01 3e 07 e5 cf be 21 c0 cb 3e 20 1d 2c 3e
       0.12615523 -0.40604421 0.3979502 0.16807985
0000e0 51 09 20 bc 0a 6e 83 be 92 68 12 3e 28 38 05 3e
       -0.009767846 -0.2566989 0.14297703 0.13009703
0000f0 88 33 a4 bb ae 29 2d 3e 86 1b 95 3e ec d8 44 bf
       -0.005011026 0.16910431 0.2912256 -0.76893497
000100 d1 1d 1b be 03 11 8d be 01 21 a5 bd 09 57 12 bf
       -0.15148093 -0.2755204 -0.080629356 -0.57164055
000110 9e ba 59 bc 48 3e a1 3b e6 38 bf be 71 4d 71 be
       -0.013289122 0.0049207546 -0.37348098 -0.23564698
000120 81 af 9e bd 78 ae c0 bc 39 d0 51 be 32 7f 03 3e
       -0.077483185 -0.023520693 -0.20489587 0.1284149
000130 3f 36 2a be cf 0b c4 bd dd e5 c3 be 3f e3 4c bd
       -0.16622256 -0.09572565 -0.3826131 -0.050021406
000140 77 09 3b bb 63 0d 67 be 0b 08 20 3e cd a6 08 3f
       -0.0028539577 -0.225637 0.15628068 0.5337952
000150 7c a1 0a 3e 48 b8 2d bf f9 4d f5 3d f0 ae ed 3d
       0.13538164 -0.67859316 0.11977763 0.11605632
000160 1c 5a 68 be 87 19 72 3e e7 1c cc bb 2d 9a 7b be
       -0.22690624 0.2364255 -0.0062290314 -0.24570532
000170 93 74 90 3d 55 8b 9a 3e b8 7b 30 be b3 c7 fc 3d
       0.07053485 0.30184427 -0.17234695 0.12342777
000180 fa 20 1a bd 64 39 1a 3e 89 90 f3 3c 6c 13 0f 3e
       -0.037629105 0.15060955 0.029732006 0.13972253
000190 34 6c 26 3e 13 50 10 3e e1 8f 30 3e 6f c4 cc be
       0.16252214 0.14093046 0.17242385 -0.39993617
0001a0 dc 5e d8 3e 7f 2f 00 bf 25 19 91 bd 21 a2 35 3d
       0.42259872 -0.50072473 -0.07084874 0.04434407
0001b0 02 ae ed 3e 06 f6 3b 3e 63 0a 8e 3d e1 be af 3d
       0.4642182 0.18355569 0.06935575 0.08581329
0001c0 5a d0 91 bd 94 9d 06 bf 01 be 70 3d 32 5d bf 3d
       -0.07119818 -0.52584195 0.05877495 0.093439475
0001d0 10 e7 af bd 5a e4 bc 3e 7a f8 83 3e 54 51 cd be
       -0.085889935 0.36892968 0.2577551 -0.4010111
0001e0 a3 b3 b1 3c db ba c6 3e f3 6e 81 be 0d 72 d0 bd
       0.021692103 0.38814434 -0.2527996 -0.101780035
0001f0 d5 a0 9a 3e c9 3d 31 be 40 89 52 3d 35 55 e6 bc
       0.3020083 -0.17308725 0.051400423 -0.028116802
000200 34 ea f9 bd 44 72 e5 be 74 99 d8 be 8d cf 1a 3c
       -0.12202874 -0.4481374 -0.42304575 0.009448898
000210 48 12 b7 bc f3 46 f9 3c 3c 4e b9 be 6a 83 86 be
       -0.022347584 0.030429339 -0.361925 -0.26272136
000220 b3 9f 83 3e 3e 6b 69 bd 62 13 90 3e 9a 43 7c 3d
       0.25707778 -0.05698704 0.28139788 0.061587907
000230 2b 8f 1d bf 90 74 9c 3e 5e 94 ec 3e d5 34 b5 3d
       -0.6154658 0.3055768 0.46206945 0.088479675
000240 3f 70 8a 3d 44 60 dc 3e a5 58 07 3f 0b 7c 39 be
       0.067596905 0.43042195 0.52869636 -0.18113725
000250 a9 2c 3e be ee fc 32 3f b3 7e 92 be 79 9c 9a 3c
       -0.18571724 0.6991719 -0.2861229 0.01887344
000260 ca c9 ac bb ee e2 66 be 00 96 cb be 53 68 0a be
       -0.0052730786 -0.22547504 -0.39762878 -0.13516359
000270 6c 18 b7 bd 16 d6 84 bd d5 de 09 3f c2 00 fa 3e
       -0.08940205 -0.06486146 0.5385564 0.48828703
000280 e7 0c ed bd d6 c1 64 bc f7 05 cd bc f1 81 9c 3e
       -0.115747266 -0.01396223 -0.025027258 0.30567887
000290 7a 55 59 be e3 74 04 3f 73 6d 2d bd 4b 36 28 3e
       -0.21224013 0.51740855 -0.042340707 0.16426961
0002a0 a5 49 00 3f 2f f2 cb 3d 11 ad bf be 36 39 fd bd
       0.5011237 0.09958302 -0.37436727 -0.12364428
0002b0 1b 97 55 bd 9d 27 0a 3d ef 23 3e be 43 73 22 bf
       -0.05214606 0.033729184 -0.18568395 -0.63457125
0002c0 38 7e 0e bd 53 54 89 3e 47 87 57 bd 1f 4e 57 bf
       -0.03478834 0.26822147 -0.052619245 -0.8410358
0002d0 c0 5e 2c 3c f2 14 db be da 22 0e bf bc bf cc be
       0.010520637 -0.42789418 -0.5552193 -0.39990032
0002e0 ac 03 85 bf c5 ab a6 be de 80 d3 3e fa dd 32 3e
       -1.0391746 -0.32552925 0.41309255 0.1746749
0002f0 b7 a5 21 3e 60 0f f0 bc 67 f6 a5 3e 42 63 b9 3e
       0.15785871 -0.029304206 0.32414553 0.3620854
000300 be e6 52 3d 17 dc d4 be 9a 56 06 be 33 aa 9f be
       0.051489584 -0.41574165 -0.13118973 -0.3118454
000310 7a 8d 7a 3d d2 e1 6e 3d 68 36 cf 3e 94 59 84 be
       0.06117008 0.058320828 0.40471196 -0.25849593
000320 c5 6f ca 3e 91 dd 10 bc d1 eb 45 3e 09 b7 bb 3d
       0.39538398 -0.008841888 0.19328238 0.091657706
000330 86 74 e6 be 40 f7 3f 3e 5d 70 6d 3e b4 69 bc be
       -0.45010775 0.18746662 0.23187394 -0.36799395
000340 28 ed 36 3e 44 3c b1 3d ce f8 b0 3d 3e cf 0f bf
       0.17863905 0.08654073 0.08641206 -0.561756
000350 e1 b9 81 3b e7 75 17 3d 63 7f 95 3d bf 83 57 bc
       0.003958926 0.036977675 0.07299688 -0.013153969
000360 d3 c9 83 be 08 8e d3 3e 36 ce 09 3e 16 98 1c 3e
       -0.25739917 0.413193 0.1345757 0.15292391
000370 59 64 86 3d dc 1f 51 be 45 3a 89 3e 13 2d fd 3c
       0.065621085 -0.2042231 0.2680227 0.030905282
000380 40 fc 27 3e 7b ab fc be 0c 05 73 be 2f 72 eb be
       0.1640482 -0.4934958 -0.23732394 -0.45985553
000390 d8 1b 39 bd f3 2e 43 bd 06 87 69 be 3a da 7c be
       -0.04519257 -0.047652196 -0.22805414 -0.24692622
0003a0 ef 8f cd bd cb c7 bf bd 6b 34 ad 3d 68 06 7f bd
       -0.10037219 -0.09364279 0.084572636 -0.06226197
0003b0 20 6f 4e bd aa 7c 11 3e 7b 9a bd bd b2 51 e1 be
       -0.050398946 0.14207712 -0.092579804 -0.4400764
0003c0 c5 33 b5 3d e8 ac 9e be e1 44 41 bf 11 07 c9 be
       0.08847765 -0.30991292 -0.75495726 -0.39263204
0003d0 98 8e 10 be 4b d0 40 3d 91 c9 2e bd c3 e1 bd 3e
       -0.14116895 0.047073644 -0.042672697 0.37086305
0003e0 14 19 4a 3e 92 d3 7f 3e 63 30 3d be e1 f5 b5 3d
       0.19736129 0.24983051 -0.1847549 0.08884788
0003f0 49 f1 0e 3f 15 43 1e be 23 7d a4 bd e0 d8 76 be
       0.5583692 -0.15455277 -0.080316804 -0.24106169

fc2.bias f4 [16]
000000 ad b8 cc 3e 9f 6c 96 be fb 94 c3 be 6d 73 b2 3d
       0.39984646 -0.29379746 -0.381996 0.08713422
000010 e1 c9 5a 3d 50 df 06 bf 49 3d 9d 3f 49 bf 8d 3d
       0.053415183 -0.526845 1.2284328 0.069212504
000020 5e 54 17 3f 81 e6 ee 3e b7 c0 2e 3e 25 3e 0c 3e
       0.5911311 0.46660236 0.17065702 0.13695581
000030 77 b5 38 3f dd 1c 47 be 3f 8f 26 be 78 fa c1 be
       0.72151893 -0.19444604 -0.16265582 -0.37886405

fc3.weight f4 [10, 16]
000000 68 9c d8 be 04 c1 d2 3d f3 6f a8 3d f0 9f 62 bd
       -0.42306828 0.10290721 0.082244776 -0.05532831
000010 58 61 8b 3d f3 3d 10 3e c7 bf 8c be 2b f5 a3 be
       0.06805676 0.14086132 -0.27490065 -0.32022986
000020 dc 96 7b bf d2 5f 93 bc f3 5a 21 3f 3b a0 2d bf
       -0.9827707 -0.017990027 0.630294 -0.6782262
000030 69 bd 2e be e4 72 cc be 61 e2 44 3d a7 da d9 3c
       -0.17064442 -0.39931405 0.048067454 0.02659352
000040 85 82 ce 3e 2c 6a 1c 3e de 3c dd be 29 e4 df bd
       0.40333953 0.15274876 -0.432105 -0.1093219
000050 3b fc b7 bc f9 1b a7 be 5e 81 8e be 8e e2 9a bc
       -0.02245914 -0.3263853 -0.27833074 -0.018906858
000060 fe 75 9b 3e d1 99 21 bd 78 77 0e bf 3b 70 5b bd
       0.30363458 -0.03945333 -0.55651045 -0.05357383
000070 7e 62 a1 3e ba ed 5a 3e 76 69 e1 bd 5d 92 fc bd
       0.31520456 0.21379748 -0.11006443 -0.12332604
000080 d3 13 ec be f6 34 b7 3e b2 5d e2 bd 1d b7 a8 bd
       -0.46108875 0.35782593 -0.11053027 -0.08238051
000090 0d bb af bd 5e c1 92 3e cd 4b ac 3d 48 a5 66 3e
       -0.08580599 0.28663152 0.08412895 0.22523987
0000a0 76 47 09 bd c1 3c a3 3e 30 21 80 be fd 2a a9 3e
       -0.033515416 0.3188229 -0.2502532 0.3304061
0000b0 88 d0 e8 be 13 e8 b2 3c c6 1e 36 be 7a 4f 15 3d
       -0.45471597 0.021839177 -0.17785177 0.036452748
0000c0 46 73 a8 3d 4c 72 cc 3d e9 ab 90 3e c4 d0 b6 be
       0.08225112 0.09982738 0.28256157 -0.3570615
0000d0 fd 07 b1 bd c5 5b 8b 3d cd fb c9 3d 0b fb 93 3d
       -0.08644102 0.06804613 0.0986248 0.07225617
0000e0 06 9e e9 be 81 fd f4 bd 7d 21 82 be c3 af da bd
       -0.45628375 -0.119624145 -0.25416175 -0.10678055
0000f0 ec 93 4b be 39 83 da 3e a8 98 9e bd df 76 5a 3e
       -0.19880646 0.4267824 -0.077439606 0.21334408
000100 f2 77 a8 3e 2c ba fe be 7d 15 de be cd 96 95 3e
       0.3290401 -0.49751413 -0.4337577 0.29216614
000110 4e f2 5e bd 7b 5a 8a 3e b5 a3 07 3e 65 76 93 3e
       -0.0544303 0.27022156 0.13246043 0.28801265
000120 3e 49 01 bf 9a d6 22 be 20 3c f9 bd 3a 21 e9 bd
       -0.50502384 -0.15902176 -0.12169671 -0.113832906
000130 e1 15 c3 3e fe 45 3d bf b9 ec 8e be c3 0b 0b bf
       0.3810263 -0.73934925 -0.2791498 -0.5431482
000140 3a 38 03 bf 9a 3e 09 be 0a 09 56 3e ab 88 d1 be
       -0.5125767 -0.13402787 0.20901886 -0.40924582
000150 f3 7f 08 3c 07 2a b3 be 0e 07 ff 3d c1 d9 dd 3e
       0.008331287 -0.34993002 0.124525174 0.43330196
000160 f7 d9 8a 3e 82 a2 42 3e 02 59 32 3e 2d 78 65 bf
       0.2711942 0.19007304 0.17416766 -0.896365
000170 1f 6b 84 3e 9c d8 5d 3e cb ce 2f be a5 47 21 3e
       0.25862977 0.21664661 -0.17168729 0.15749986
000180 1a f1 e1 be c5 ce 9e be 38 b9 f3 be a8 33 a3 3e
       -0.44129258 -0.31017128 -0.47602248 0.31875348
000190 1a 92 24 3d eb 0b 01 be ef d4 8a bf b0 98 64 3e
       0.040178396 -0.12602203 -1.0846232 0.2232387
0001a0 07 0d fd 3d 62 72 0c 3f 04 7a a7 3d b8 5d dd be
       0.123560004 0.54862034 0.081775695 -0.43235564
0001b0 a3 7c 1f be 97 aa f2 bd 1f 00 90 bb fc da e7 be
       -0.15574889 -0.11848944 -0.0043945457 -0.4528426
0001c0 28 ed b4 3e bf 16 14 3e db 79 29 3c 75 b9 95 be
       0.35337186 0.14461802 0.010343994 -0.29243055
0001d0 5c cd dd bd 86 76 84 be 1c e9 c5 3e 9a 52 f7 be
       -0.10830185 -0.25871676 0.3865441 -0.48305207
0001e0 b1 c7 61 be 5c ac ba 3e 5d 56 e7 bd 3b 65 fc be
       -0.22048832 0.36459625 -0.11295769 -0.49295983
0001f0 15 49 b6 be 62 f5 0f be b2 c4 8d be fe 0f d5 bd
       -0.35602632 -0.1405845 -0.2768913 -0.10403441
000200 cb 4b 8a be 01 09 9b 3e 24 7e 81 be 6a 98 47 3e
       -0.2701095 0.30280307 -0.2529155 0.19491735
000210 65 eb 84 bc 95 3b 9c 3d 16 95 df be bd a5 27 3e
       -0.016225526 0.07628552 -0.4366843 0.16371818
000220 27 1b b5 bd 85 97 8c be 22 0b 4e bc e9 71 0e bf
       -0.088430695 -0.2745935 -0.012575896 -0.55642563
000230 58 fe ac 3e 93 ba 10 3e 79 32 84 be 1e ba b9 3e
       0.337878 0.14133672 -0.25819758 0.3627481
000240 55 62 6a 3e 93 86 01 bf f0 07 02 be 5b 23 e1 bd
       0.22889073 -0.5059597 -0.1269834 -0.10993072
000250 60 2a b8 3c bf f6 98 3c 66 fb b1 3e fd 99 b1 bd
       0.022481143 0.018672345 0.34762114 -0.08671949
000260 4e e7 14 3d 8b c8 1b bf 82 5c bc 3d b1 89 2b bf
       0.0363534 -0.6085288 0.09197332 -0.67006975
000270 6e c2 84 3c 10 a1 80 be 22 d8 6c be 06 73 b2 3e
       0.016205993 -0.2512288 -0.23129323 0.3485338

fc3.bias f4 [10]
000000 a4 f0 3a be d9 16 15 be fa 77 71 be 45 1c a6 be
       -0.1825586 -0.14559497 -0.23580924 -0.32443443
000010 f3 a3 22 3f a1 8d 09 3e d8 c6 c2 bd 12 db 7c be
       0.63531417 0.13432933 -0.09510583 -0.24692944
000020 42 26 30 bf fd f3 1a 3f
       -0.68808377 0.60528547
