backend/results/fcnnModel.pth (torch, 67868 bytes, 6 tensors)

fc1.weight f4 [20, 784]
000000 e5 87 d8 3c 66 db a6 3d af e3 57 3d f6 33 a0 3d
       0.026431987 0.08147316 0.05270737 0.07822411
000010 fb 28 85 3d 7d 12 64 3d 6a 47 8f 3d 5b 33 7d 3d
       0.06501957 0.055681694 0.06996043 0.061816555
000020 b1 b4 95 3d f3 f9 3c 3d 8d 51 6b 3d 7a d0 68 3d
       0.07309855 0.046136808 0.05745082 0.056839444
000030 f6 97 85 3d 52 66 75 3d 58 ee ba 3d da c0 91 3d
       0.06523125 0.059912033 0.09127492 0.07116862
000040 a0 81 3f 3d 16 a2 1d 3d db 76 5d 3d 94 e2 36 3d
       0.04675448 0.038484655 0.054068428 0.044649675
000050 65 1b 47 3d 0c fd 7c 3d 2f 98 a6 3d 71 bf a2 3d
       0.04861011 0.06176476 0.081344955 0.07946671
000060 05 f7 cd 3c b2 55 a8 3d eb 6c 8f 3d 3f 5f c0 3d
       0.025142202 0.0821947 0.07003196 0.09393167
000070 49 45 ab 3d 40 65 e1 3c fd c9 d5 3c fe 6c 2f 3d
       0.083628245 0.0275141 0.026097292 0.042828552
000080 37 38 bb 3d 0d 9e 5d 3d 4f 4b 9a 3d e0 00 32 3d
       0.091415815 0.054105807 0.07533895 0.043457866
000090 d7 c2 c2 3d 3e 17 38 3d f8 d7 b1 3d 62 b7 77 3d
       0.09509819 0.04494404 0.08683771 0.06047762
0000a0 0e eb 28 3d a8 96 a0 3d 29 55 28 3d ef 80 90 3d
       0.04123979 0.078412354 0.04109684 0.07055842
0000b0 35 be 4b 3d 35 f2 65 3d 95 b1 d2 3c da 3c 30 3d
       0.049741942 0.05613919 0.025719443 0.043026783
0000c0 8a ae a2 3d e2 6c 52 3d 8d d8 c3 3d 59 9f b5 3d
       0.07943447 0.05137337 0.09562788 0.08868284
0000d0 6b 22 6f 3d 41 57 14 3d 81 88 a7 3d 41 b1 91 3d
       0.058382433 0.036216024 0.08180333 0.071138866
0000e0 0f 6c 17 3d 64 80 aa 3d ab 65 a7 3d ad dc bb 3d
       0.036968287 0.0832527 0.081736885 0.0917295
0000f0 71 fb 23 3d 91 e7 5d 3d 76 26 73 3d cf ac 85 3d
       0.040034715 0.054175917 0.05936285 0.06527101
000100 16 f7 06 3d 2c 2d 0e 3d 33 c8 a2 3d 65 ae 53 3d
       0.032950483 0.034711048 0.07948341 0.051679987
000110 67 b8 9e 3d e5 52 7e 3d 10 02 93 3d 3a 13 8b 3d
       0.07750016 0.062090773 0.07178128 0.067907766
000120 12 96 95 3d e1 3f 9f 3d b2 03 dd 3c fd ce 9f 3d
       0.07304014 0.07775856 0.026979301 0.07803152
000130 8f 20 0f 3d 36 9c 07 3d 5e e1 7e 3d 51 0e 5d 3d
       0.03494316 0.03310796 0.062226646 0.05396873
000140 57 f3 a5 3d ca 43 21 3d ae e0 e7 3c 1b 39 b0 3d
       0.08103054 0.03937129 0.028305378 0.08604642
000150 e4 4a 60 3d b8 21 a4 3d 9c 81 92 3d bd 49 08 3d
       0.05475892 0.08014244 0.07153627 0.033273447
000160 ae af 89 3d 87 8f 8c 3d 87 09 14 3d 56 93 30 3d
       0.06722961 0.06863313 0.0361419 0.04310926
000170 92 ee 93 3d f0 17 88 3d 14 c2 37 3d 78 b3 49 3d
       0.07223238 0.06645191 0.04486282 0.04924342
000180 76 fb bd 3d 08 eb 5a 3d ae 3a a4 3d aa a9 9a 3d
       0.09276478 0.0534468 0.08019005 0.07551892
000190 4b 6c 17 3d 09 28 f3 3c 75 33 c1 3d 65 9f 7d 3d
       0.03696851 0.029682176 0.09433643 0.06191959
0001a0 db 20 ad 3d 44 26 8a 3d 32 84 92 3d 6d a0 b1 3d
       0.08453532 0.0674558 0.071541205 0.08673177
0001b0 dd 58 c0 3d 62 e9 14 3d 0f 23 84 3d 4c 93 b1 3d
       0.09391949 0.036355384 0.064519994 0.08670673
0001c0 af fa af 3d 5f 6e a8 3d 45 1d 0c 3d a3 a4 0c 3d
       0.08592736 0.082241766 0.0342076 0.034336697
0001d0 be 83 1d 3d 48 2e 84 3d 13 e4 c3 3d 37 94 19 3d
       0.038455717 0.0645414 0.09564986 0.037494864
0001e0 ea f7 a1 3d 44 04 25 3d 5d e3 d8 3c 47 e4 56 3d
       0.07908614 0.04028727 0.026475603 0.052463796
0001f0 ff 21 a5 3d b3 51 dc bc 2b 69 a8 bd aa dc 8a 3d
       0.08063125 -0.026894426 -0.08223184 0.067803696
000200 81 1a ba 3d cf 75 ab 3d 85 93 a8 3d 32 f8 ae 3d
       0.090870865 0.083720796 0.08231262 0.08543433
000210 82 41 a9 3d 72 e2 8d 3d 72 f3 11 3d 6e 47 f6 3c
       0.08264448 0.06927957 0.03563256 0.030063357
000220 f3 f3 32 3d 1f f3 64 3d 63 51 1c 3d 67 c0 95 3d
       0.04368968 0.05589592 0.038163554 0.073120885
000230 fa a0 91 3d 1c dc 54 3d 91 1a 97 3d 72 a1 92 3d
       0.07110782 0.051967725 0.07378114 0.071596995
000240 07 a6 a7 3d e4 3f ac 3d aa 71 44 3d 57 74 c2 3d
       0.08185964 0.08410624 0.04795996 0.09494846
000250 83 12 65 3d 52 f5 70 3d a3 d0 d7 3c f1 d3 17 3d
       0.055925857 0.058827706 0.026344603 0.037067357
000260 7f b7 a5 bd 96 46 9a bd 4d fa 0d bd b8 e4 92 bd
       -0.0809164 -0.075329944 -0.034662534 -0.07172531
000270 60 a6 b1 bd d9 20 97 3d 6b 68 92 3d 62 5d aa 3d
       -0.08674312 0.07379312 0.071488224 0.083185926
000280 f7 48 2a 3d b4 d9 8a 3d 78 ba 40 3d 02 1e 55 3d
       0.04157349 0.06779805 0.04705283 0.05203057
000290 03 68 01 3d 0f 50 33 3d d4 2e 49 3d 3d 45 9a 3d
       0.031593334 0.04377752 0.049116924 0.075327374
0002a0 ba 5a 88 3d 3a 0f 8d 3d 0b ff c3 3d 6f 47 c2 3d
       0.0665793 0.0688767 0.0957013 0.09486281
0002b0 fd e0 ac 3d 6f a4 7a 3d ed c8 10 3d 62 27 b4 3d
       0.084413506 0.061191972 0.035347868 0.08796574
0002c0 41 67 51 3d 55 28 6a 3d a0 48 ef 3c a5 6e 89 bd
       0.05112386 0.05716737 0.029209435 -0.06710557
0002d0 61 a1 17 3d fb 33 be 3d 46 04 ef 3c 31 01 b4 bd
       0.037019137 0.09287258 0.029176842 -0.0878929
0002e0 63 f3 7a bd 70 8a a2 bd f1 28 95 3d ed ab 3d 3d
       -0.061267268 -0.07936561 0.072831996 0.04630654
0002f0 5a 46 31 3d d0 44 7e 3d 8f f0 af 3d 26 15 0f 3d
       0.043279983 0.062077343 0.08590805 0.034932278
000300 1b 57 9d 3d 59 fb a9 3d 3c 8a c2 3d 1c 98 0f 3d
       0.0768263 0.08299894 0.09499022 0.035057172
000310 da b4 8c 3d 06 d1 09 3d 0e 70 b9 3d 28 3d 3d 3d
       0.06870432 0.033646606 0.09054576 0.0462009
000320 bf 0c a7 3d d6 56 7a 3d 48 97 6a 3d f7 50 71 3d
       0.08156728 0.06111797 0.05727318 0.058915105
000330 01 6d 87 3d 93 78 9d 3d 64 b6 86 3d ed 4d 91 3d
       0.06612588 0.07689013 0.06577757 0.07094941
000340 25 cb e4 3c 70 47 b0 3d bc c2 ba 3d 97 73 b7 3d
       0.027928898 0.086073756 0.09119174 0.08957594
000350 53 0f b1 3d cf 69 0c 3d 45 c1 3f 3d 71 7b bb 3d
       0.08645501 0.034280594 0.046815176 0.09154404
000360 14 90 06 3d 21 59 bd 3d 0e ee 02 3d 42 f0 0e 3d
       0.032852247 0.092455156 0.031965308 0.034897096
000370 ed bf 9e 3d 03 e1 0c 3d 42 78 54 3d ec 33 b0 3d
       0.07751451 0.034394275 0.0518725 0.08603653
000380 79 ed b4 3d d3 2a c0 3d d5 4c 58 3d 2c 48 04 3d
       0.08834357 0.09383168 0.052807648 0.03229539
000390 5f 02 c3 3d 45 d2 56 3d fb cb 39 3d 64 d2 8c 3d
       0.095219366 0.052446622 0.045360547 0.06876066
0003a0 b4 ae 0f 3d 3d 11 ab 3d 4b d5 a8 3d ce e8 01 3d
       0.03507872 0.08352897 0.082438074 0.03171616
0003b0 9f a8 fb 3c 3f 2b 69 3d 79 b6 99 3d 9e be 71 3d
       0.030720053 0.05692601 0.07505507 0.059019677
0003c0 33 cc 2b 3d 17 51 79 3d dd ec d8 3c d4 95 0e 3d
       0.041942786 0.06086835 0.026480133 0.034810856
0003d0 f6 99 14 3d ea 39 b7 3d 68 77 bb 3d 86 4b 44 3d
       0.03627964 0.08946593 0.09153634 0.047923587
0003e0 7e 8b 7c 3d b1 9c 9b 3d 79 c1 83 3d 2a bb 2c 3d
       0.061656468 0.07598246 0.06433386 0.04217068
0003f0 21 2d a5 3d 95 f4 a7 3d 8a 81 6d 3d d5 f9 63 3d
       0.08065248 0.08200947 0.057984866 0.05565818

fc1.bias f4 [20]
000000 67 1d 9c bd 99 03 ad 3d 56 ad d4 bc fe ce 00 bd
       -0.076227956 0.08447952 -0.02596156 -0.031447403
000010 7c df aa bd 3a 95 c1 bd 8f 72 43 bd 96 3b 81 3e
       -0.083434075 -0.09452291 -0.047716673 0.25240773
000020 be 7e 76 bd 37 de 59 bd 93 47 87 bd 1a 56 03 bd
       -0.060179465 -0.053190436 -0.066054486 -0.032064535
000030 2d a1 73 bd e8 ee 95 bd b8 1a db 3d 24 58 3f 3c
       -0.05947988 -0.073209584 0.106984556 0.011678729
000040 a0 6f cb ba b3 64 74 bb 17 b7 94 bd 7f 27 c0 3a
       -0.0015520938 -0.0037291467 -0.07261484 0.0014660208

fc2.weight f4 [20, 20]
000000 44 78 8d 3c fc 6a 01 3d a7 19 7d 3d e4 03 92 bd
       0.017269261 0.03159617 0.061792042 -0.07129648
000010 b7 91 49 3b d6 80 8a be 26 12 38 bf 27 ec 12 3e
       0.0030757019 -0.2705142 -0.7190269 0.14347897
000020 6b e5 ed bb 75 75 9c bc b1 55 f5 3b 7c 20 8a 3e
       -0.007260015 -0.019098977 0.007487022 0.2697791
000030 e9 d5 bd 3d 51 8b 88 3d 95 aa 53 be 1a 97 18 be
       0.09269316 0.066671975 -0.2067054 -0.1490139
000040 fc 32 01 3e 92 b2 80 3d 9b b3 10 3e cf 5a c5 bd
       0.12617105 0.062840596 0.14131014 -0.09636461
000050 08 3b 92 3c fe e4 9b 3e 20 dd 5b bd fd 60 b0 bd
       0.017850414 0.30448145 -0.053677678 -0.08612249
000060 21 ad 83 bd f8 3e 28 be 96 00 83 3e f8 64 a4 bc
       -0.06429506 -0.1643027 0.25586385 -0.020067677
000070 2b 62 14 be 30 cb fc 3b 3f 72 71 be 6b 16 f4 bd
       -0.14490573 0.0077146515 -0.23578738 -0.119183384
000080 48 43 62 3e 22 3a bd bd 3a 28 92 be 76 d0 61 3e
       0.22095978 -0.092396036 -0.28546315 0.22052178
000090 49 83 56 be 40 ab 66 be 22 5b 35 3e 1d 36 f5 bc
       -0.20948519 -0.22526264 0.17710546 -0.02993303
0000a0 cc 67 2b 3c ed cf 52 bd eb 57 8b 3d bd 4f 84 3c
       0.010461759 -0.051467825 0.068038784 0.016151303
0000b0 c0 9e 32 3c df b3 8a 3e c7 50 df 3d c8 9f 1f 3e
       0.010902107 0.27090356 0.10904079 0.15588295
0000c0 e5 ea 57 be 98 c4 22 be a7 54 48 be 39 74 27 3e
       -0.21085699 -0.15895307 -0.19563542 0.16352929
0000d0 de f8 1e 3e a9 5a 55 3d 93 b0 88 3e 94 d8 a8 bd
       0.15524623 0.052088413 0.26697215 -0.08244434
0000e0 e4 a9 0c bd 54 fe 53 bd 7f 51 2d 3d a3 cb 08 be
       -0.034341708 -0.051756218 0.04231405 -0.13358931
0000f0 b6 a3 03 3e e3 2c cf 3d 73 ad 53 3d 5c 5b e4 3d
       0.1285542 0.10115983 0.051679086 0.11150238
000100 f2 54 1a 3e 4c 3a 30 be 97 68 f1 be 49 d2 36 bd
       0.15071467 -0.17209738 -0.47150108 -0.044634137
000110 11 31 3f be fc a6 63 3d 28 8e 04 3d fa ce ce bd
       -0.18671061 0.05557917 0.032362133 -0.100980714
000120 5d e9 b3 bc d6 db 64 bd 8d fa d4 3e 0c 2f c1 bd
       -0.021961862 -0.055873714 0.41597405 -0.094328016
000130 1e 5b 5b be 5f 88 5c be b0 40 88 bd 1d 45 47 be
       -0.21421477 -0.21536396 -0.06652963 -0.19459958
000140 4a cb 2b 3e 64 07 01 be 13 7b 6a 3e e8 b2 27 3e
       0.16776767 -0.12600476 0.22898512 0.16376841
000150 81 c6 72 3d 01 8f 8b bd ec e7 8e 3e 9c 77 f4 be
       0.05927134 -0.06814385 0.27911317 -0.47747505
000160 a2 3d 4e 3e 42 7a ca bc a2 76 08 bd eb 68 83 bd
       0.20140699 -0.0247165 -0.033316262 -0.06416496
000170 46 e4 6f be df 3d 07 3e ef dc 52 be 2c e9 bd 3d
       -0.23426923 0.13207196 -0.20592092 0.0927299
000180 00 1d 60 3e 5d f5 89 3e 74 aa 3f be 15 2c 73 3d
       0.21886063 0.2694501 -0.18717366 0.05936821
000190 f4 bb 14 3e cd 5f 8b be 61 78 f1 bd 93 ee 3a bd
       0.14524823 -0.27221528 -0.117905386 -0.04563768
0001a0 ff 7b 5f bc 8b 54 b0 3d 01 36 8f be c2 0b d5 bc
       -0.013640403 0.08609875 -0.2797089 -0.026006583
0001b0 4c 8f 95 bd 36 ef 10 3e 3f fa c0 3d 77 dc af 3d
       -0.07302722 0.14153752 0.09422731 0.08586972
0001c0 88 a2 78 3e f1 93 3a be 1e 7b c1 bd 48 3e 57 3e
       0.24280751 -0.18220498 -0.09447311 0.21019852
0001d0 38 3b 2a 3e 4f 5b d0 bd d2 ac 73 bd 7c 08 f1 3d
       0.16624153 -0.10173666 -0.059490986 0.117691964
0001e0 3b 7b 7b be e6 20 11 3e d0 93 87 be 0f 2d 37 3d
       -0.24558727 0.14172706 -0.2647996 0.044720706
0001f0 b9 d1 e9 bd 80 ee 5e 3e f9 52 7e be 1a cf 6a bf
       -0.114169545 0.21770668 -0.24836339 -0.9172226
000200 77 33 39 3c b8 b8 f1 3d 2e 0a ae bd 3d 2c 58 3d
       0.011303774 0.118028104 -0.08498035 0.052776564
000210 9e 66 8c bd 13 b9 32 3d b6 9b d1 bd 38 ae 96 3d
       -0.0685551 0.04363353 -0.10234778 0.07357448
000220 40 53 be 3b 37 65 d1 bd 37 a4 24 3e 32 07 0e 3e
       0.005808264 -0.10224383 0.16078268 0.13869932
000230 92 1a 96 3d d9 e2 f6 bc b6 a1 dc 3d 7a 0c 34 bb
       0.07329287 -0.030137466 0.107730314 -0.0027473257
000240 24 cf 15 bd e9 6a 0e be 5f 35 88 bd c4 c7 a7 3e
       -0.036574498 -0.1390797 -0.06650805 0.32769597
000250 36 cd 4a 3e e2 61 6a 3d 80 47 0c 3c 36 31 44 3d
       0.19804844 0.057222255 0.008561969 0.047898494
000260 27 06 9a 3c 16 81 bc 3d 5e 13 98 be cc 85 27 bd
       0.018801762 0.09204309 -0.29702276 -0.040899083
000270 d4 0e 84 bd d7 2b 09 3e c5 87 d0 3a 3f fa 19 3d
       -0.06448141 0.1339563 0.0015909603 0.03759217
000280 f1 7f 95 3c a2 16 58 be 0e 9c bf 3d e7 ab 0b be
       0.018249484 -0.21102384 0.09355937 -0.13639794
000290 1a d3 01 bd 7f 1f 82 bd c2 8f de be a8 2b 0d bf
       -0.031695463 -0.06353664 -0.43469054 -0.5514474
0002a0 14 e8 21 be 44 29 11 be 4a 76 5a 3d f9 9b c9 bc
       -0.15811187 -0.14175898 0.053335465 -0.024610506
0002b0 70 84 fe 3d 82 95 d8 3d a9 41 a7 3e 8c fc 4c be
       0.12427604 0.10575391 0.32667282 -0.20018214
0002c0 94 7c 4a bd 16 d2 69 bf 1e 9f da bd 87 84 e8 bc
       -0.049435213 -0.9133619 -0.106748804 -0.028383506
0002d0 2c 0c 3f bd a7 59 4d bf fd 21 1f be 63 56 c1 bc
       -0.046642467 -0.80214924 -0.15540309 -0.023600763
0002e0 3d b0 b8 3d ba a6 47 3e e9 9a 77 3d 65 a4 37 3e
       0.0901799 0.19497195 0.06045047 0.17933805
0002f0 08 91 89 3d 2c 17 29 be 4a 8c b2 bd 30 03 ea 3c
       0.06717116 -0.16512746 -0.08718164 0.028565973
000300 78 29 b5 3d a8 d7 41 be 36 ac 17 be 2c 21 99 3d
       0.088458 -0.18929923 -0.14811787 0.0747703
000310 d0 dc 5e bc fb c1 d7 be ff 7b 3f 3d 39 f1 2d bd
       -0.0136024505 -0.42140183 0.04674911 -0.042466376
000320 f0 5c 88 3d 63 06 0c bf 6a 3e 2b 3e 6f 65 43 bd
       0.066583514 -0.54697245 0.16723028 -0.047704156
000330 3a 2f 50 3d 28 4e 95 bd f1 6a b1 3e d8 53 ba 3e
       0.05082629 -0.07290298 0.34651902 0.36392093
000340 ba 76 49 3e 81 f2 9a bd 8c 32 6b bd 04 98 24 bd
       0.19674197 -0.07565785 -0.057421252 -0.040184036
000350 b0 f8 bb bd 9f e0 e9 bd 00 9e 04 be 42 32 a3 bd
       -0.09178293 -0.11419796 -0.12950897 -0.0796857
000360 36 71 03 3e e5 f5 31 be 56 85 de 3c e1 1a fb 3d
       0.12836155 -0.17378958 0.027163189 0.12260986
000370 a6 08 8a bd a9 eb 6f be 49 68 e6 bd b1 da d5 bd
       -0.06739931 -0.23429741 -0.112503596 -0.10442103
000380 16 85 26 be 9c 56 0d 3e 72 6b cf be f4 f1 2c be
       -0.16261706 0.1380257 -0.40511662 -0.16889173
000390 8a 9d 53 3e 1e 89 b9 3d 68 38 f0 bd 1f 66 47 be
       0.20665565 0.09059356 -0.11729509 -0.1947255
0003a0 10 a0 f9 bd 2c 65 3a be 27 90 8f bd 4c ea 41 be
       -0.121887326 -0.18202657 -0.07009917 -0.18937033
0003b0 34 bd 39 be dd 50 73 bd dc 84 7b 3d 20 50 60 be
       -0.18138582 -0.05940329 0.061406 -0.21905565
0003c0 e8 a0 36 3d 6f 57 51 be a0 0e 9a bb be 45 2c be
       0.044587046 -0.2044351 -0.0047014505 -0.1682348
0003d0 d6 f4 91 bd 06 08 e7 bd d5 be 36 be 40 18 69 bb
       -0.07126777 -0.11280827 -0.17846234 -0.0035567433
0003e0 d0 1b b7 bd 7c 53 cb bd 38 bc 64 3d c0 4d e3 3d
       -0.08940852 -0.09928033 0.055843562 0.11098814
0003f0 7e 41 15 3e b8 0c 47 be c8 57 51 bd 89 bc 4f be
       0.14575765 -0.19438446 -0.051109105 -0.20286764

fc2.bias f4 [20]
000000 d8 2f 03 c0 26 10 36 3c a6 bf 09 bf 46 d6 c5 3e
       -2.0497952 0.0111122485 -0.5380806 0.3864004
000010 6b 2a 65 be 3a 9f bf bc b1 df 03 40 53 95 a3 bf
       -0.22379462 -0.023391355 2.060528 -1.2779945
000020 f1 86 49 3f f4 49 1b 40 75 92 22 3f 59 74 c9 be
       0.7872153 2.4263887 0.63504726 -0.3934658
000030 58 5a 09 be 0f fc 1f bf 11 0c df 3f c3 98 01 bf
       -0.1341337 -0.62493986 1.7425557 -0.5062372
000040 08 13 d9 3f d3 cf 14 c0 e3 a1 0d 3f 39 20 0a 40
       1.6958933 -2.3251846 0.55325145 2.1582167

fc3.weight f4 [10, 20]
000000 c3 fe 93 3e bd 9b 42 3d 59 eb 87 bd a4 26 96 bd
       0.28905305 0.047511805 -0.06636686 -0.07331589
000010 d7 8d 85 3d 03 b8 4c be ab 2f 36 3e e3 ca 99 3e
       0.065211944 -0.1999207 0.17791621 0.30037603
000020 a7 36 0c c0 b9 29 a9 be 99 87 c8 be 3c 15 15 3b
       -2.1908357 -0.33039644 -0.39165953 0.0022748252
000030 ba f9 5a be 73 a5 6e 3d 51 c2 ee be 42 77 af be
       -0.21384326 0.058263253 -0.46632627 -0.34270674
000040 49 b3 0a 3c d2 50 15 be f8 3d 95 bd e7 a0 23 be
       0.0084655965 -0.14581612 -0.0728721 -0.15979348
000050 38 4f ba be 60 b3 b4 bd 5e 56 a7 bd 4e 35 95 bc
       -0.36388564 -0.088232756 -0.0817077 -0.018213894
000060 4b 20 b4 bd 9b 6e 18 3d 23 23 7d bf ce 6d be be
       -0.08795222 0.037214857 -0.9888174 -0.3719315
000070 5e b3 72 bd 83 b6 ba 3e 3a 78 49 be 73 3a 38 be
       -0.05925309 0.3646737 -0.19674769 -0.17991047
000080 7c a4 0f be 0b 22 99 3e 8c 60 01 3f 45 4e 18 3b
       -0.1402759 0.29908785 0.50537944 0.0023240012
000090 46 b7 07 3f 5a ce ce be 63 18 0f 3d 43 50 98 3d
       0.5301403 -0.4039181 0.034935366 0.07437184
0000a0 3e ba bc 3c ed 66 57 3d 0e 4c de bc 21 db 9f 3e
       0.023038026 0.052588392 -0.027135875 0.3122187
0000b0 50 77 f0 3d 80 61 1c bb 88 90 ba 3d a8 f9 b9 bd
       0.11741507 -0.0023861825 0.091095984 -0.09080821
0000c0 dc e3 a7 3d f9 ae c1 3d c8 b6 8a be 21 06 d4 bd
       0.081977576 0.094572015 -0.27092576 -0.103527315
0000d0 80 c7 e0 3c 9c ee 9a bd 77 f3 f0 bd a3 c2 bc be
       0.027438879 -0.075650424 -0.11765187 -0.36867246
0000e0 8d f4 79 bc d3 62 9a bb 03 68 04 3c 17 c7 f9 3d
       -0.015256059 -0.004711488 0.008081439 0.121961765
0000f0 0a c6 40 3d 03 fd 32 be d4 00 06 3e 77 b6 09 3c
       0.047063865 -0.17479329 0.13086253 0.008405319
000100 ba a1 0f be 4d 54 81 be 1b aa 80 3e 1c 03 02 be
       -0.14026538 -0.2525963 0.2512978 -0.12696499
000110 66 b5 a2 be cb b1 8c 3e 6e e2 4d 3e aa 33 20 be
       -0.3177902 0.27479395 0.20105907 -0.15644708
000120 a4 8a f7 bd 07 39 b9 bd 0b 67 a0 bd 26 71 6c 3d
       -0.120869905 -0.0904408 -0.07832154 0.057725094
000130 94 e6 07 3e de 81 aa bd ab 6c 3a 3e 4a 08 a7 3e
       0.13271552 -0.083255515 0.18205516 0.32623512
000140 5b 3d b8 3d 69 d2 37 3e 2c c4 05 bf ab 2a 27 3e
       0.089960776 0.17951359 -0.5225246 0.1632487
000150 85 57 98 3e b4 68 29 bd 9c 99 a0 3d df e7 31 be
       0.29754272 -0.04135962 0.07841799 -0.17373608
000160 b5 ef 68 bf b6 2a 9b bd b6 e5 01 be d6 54 29 be
       -0.90990764 -0.07576506 -0.12685284 -0.16536269
000170 5b e5 ff bd 5c 9e 6f 3e 0e 73 18 bc f6 de 44 3e
       -0.12494918 0.23400253 -0.009304775 0.19225678
000180 61 0b 8a 3d 79 ba 85 3e af 67 6e be 15 1c 02 bf
       0.067404516 0.2611883 -0.2328174 -0.508241
000190 e1 55 1c be b8 f2 2c 3e c1 52 ee bd 99 08 12 3d
       -0.15267135 0.16889465 -0.11636878 0.03565273
0001a0 95 6a b5 be 0f 4e 2c 3e 04 ea de bd f3 7b 5f 3e
       -0.35432878 0.16826652 -0.10884479 0.21824627
0001b0 49 9f aa be 6b 84 8e be 88 a8 11 3e a0 3f d1 bd
       -0.3332465 -0.27835402 0.14224446 -0.10217214
0001c0 81 31 63 be 77 2c 21 bc 77 cf 76 be bc 3c 1a 3e
       -0.22186853 -0.009837261 -0.24102579 0.15062231
0001d0 c4 35 05 3e 6d 5b 83 3d ce f1 cf bd 02 76 1f 3e
       0.13008791 0.064139225 -0.101535425 0.1557236
0001e0 56 9e ae 3d 01 c8 d5 3e da 1e cd be 6a cb 41 3d
       0.08526294 0.41754153 -0.400626 0.04731313
0001f0 e6 f6 8b be c2 b1 a6 ba 8d 25 71 3e c8 df a0 bd
       -0.27336806 -0.0012717771 0.2354948 -0.07855183
000200 9d 41 cf be cf dc b5 bf 88 e5 73 bf 0a 38 7f be
       -0.40479746 -1.420801 -0.9527211 -0.24923721
000210 bd ec 40 be e5 7e 4c be e3 36 78 3e 10 4d 09 be
       -0.18840308 -0.19970281 0.24239688 -0.13408303
000220 7a fe b9 3d a2 60 0e bf e0 98 ad bf 11 8c 39 3e
       0.09081741 -0.556162 -1.3562279 0.18119837
000230 90 5c 3a 3e b4 95 a4 bd 70 b8 2d be c8 cb cb 3d
       0.18199372 -0.08036366 -0.16964889 0.099509776
000240 f9 13 ff 3d 41 0d 3d bd c2 55 de bd 72 8c 51 3d
       0.12454981 -0.046155218 -0.10856201 0.05115933
000250 2d ec 3c bf a5 75 22 bd e9 32 f2 be 96 1c 85 bd
       -0.73797876 -0.039662976 -0.47304466 -0.06499593
000260 80 fa 1a 3b e2 2d cb 3d 61 e9 2f 3e f4 66 51 3d
       0.0023647845 0.09920861 0.1717887 0.051123574
000270 b5 5c b3 3e 6f 6e bc bc 98 76 f9 3e 8f 08 da be
       0.35031667 -0.023001878 0.48723292 -0.42584655
000280 cd 41 4f be 7c 92 43 3e 91 dc 73 3e f9 bb 46 be
       -0.20239945 0.19098848 0.23814608 -0.19407643
000290 1c 42 53 be 01 b2 e9 3d 67 db 76 be 06 e2 aa bd
       -0.20630687 0.11410905 -0.24107133 -0.08343892
0002a0 8c 21 e3 3c 18 89 58 be 08 4e 8d be 06 ba 7d 3d
       0.027725957 -0.21146047 -0.27598596 0.061944984
0002b0 14 65 cf 3d 0b a8 5c be e1 cb 6c bd 84 32 07 3e
       0.10126701 -0.21548478 -0.05781162 0.13202864
0002c0 e3 50 31 be 2c c3 a6 3d 42 0e a8 bd 77 f4 09 be
       -0.17316012 0.08142695 -0.082058445 -0.13472162
0002d0 5c 76 e6 3d a0 54 92 be 46 f5 24 be d1 a2 a1 bc
       0.11253044 -0.2858019 -0.1610919 -0.019730957
0002e0 64 94 66 3e 7b f1 df bd e1 de 0f be 57 3f 63 bd
       0.22517544 -0.109347306 -0.14049865 -0.055480327
0002f0 ba aa 7f bf a5 0c 6a be 97 f7 20 3e e9 d2 75 3e
       -0.99869883 -0.22856386 0.15719448 0.24006237
000300 7c 41 c7 3d e9 8c 48 3e f6 aa 7f be 1f cd 87 3e
       0.09729287 0.19585003 -0.2496756 0.26523682
000310 19 a2 2f bd 28 50 cb 3e fc 8b de 3d 8d 51 51 bd
       -0.042879198 0.39709592 0.10866544 -0.051103164

fc3.bias f4 [10]
000000 cb ab 5c bf 37 cd dd 3f 92 db 12 3f 35 c2 ea bd
       -0.86199635 1.7328252 0.5736629 -0.11462823
000010 93 6d c1 be b6 e4 85 3e dd 13 aa 3e 0f 58 9b bd
       -0.3777891 0.26151055 0.3321828 -0.07585155
000020 f8 62 13 3e fe 58 95 bf
       0.14393222 -1.1667783
