backend/results/model.pth (torch, 90344 bytes, 8 tensors)

conv1.weight f4 [10, 1, 5, 5]
00000000: ba5c c1bd 7b60 833e 90c5 ff3d fc97 7c3e
00000010: 2b34 443e 1f15 463d 9e8a 173e 578e ee3d
00000020: 0321 2c3e 7a8a 2a3d 8eba 93bd 6e3b 81bd
00000030: dc1c 73bc 9035 6cbd f934 263e d6f0 3bbd
00000040: 1ce2 3fbe ce19 8bbe 1bf0 4ebe a3f9 41be
00000050: ba52 0ebe 9ed0 d6bd 3631 8cbd fdc6 92bd
00000060: 9694 89be 431b 893e 388b 953e ee8b bf3e
00000070: d858 883e b921 d8bd 8437 05be e392 193c
00000080: 27ca a73e f00b 593e bea2 963e e27d 42be
00000090: eb55 b73d 178d abbd 70d4 6e3e 4f93 323e
000000a0: 8636 9cbe f8fe a9bd 0d81 65be 829a 79bd
000000b0: 4140 f9bb 54d1 75be 2014 bdbe 7d19 81be
000000c0: fbe6 82bd ec03 7cbd 8a5e ab3e 7541 bb3e
000000d0: 6d36 3d3e a001 efbb 94d4 523e 16e1 a03d
000000e0: 2c27 eabc 5d20 963e 4c44 833e b8fe 803e
000000f0: 4778 20be eee6 333c d3b4 fa3d 20ba 073e
00000100: c888 19be 6449 23be aae5 203e 5b48 5a3d
00000110: db85 0c3e 5d2b 5ebd 3878 053d 85f5 a33d
00000120: d8e4 103e 35ca a23d 029a 96be b623 133e
00000130: 455e 04be 49a2 3cbe 0959 34bd 24f6 86bd
00000140: 22d7 3d3e fcc9 b6bd 5d91 6abe ea37 b13d
00000150: ecc0 66bd bce7 4b3e f996 0e3e 25b5 1abe
00000160: d0c3 463d 8544 ba3d 0cd9 47bd 3240 703c
00000170: 4367 1c3e c591 133e bec6 8c3c ab65 5f3d
00000180: 6f8b a73e dca7 943d 0496 6d3e 1d19 4f3e
00000190: 0ddd 0ebe 0a50 09be c74e 863e e9f1 fa3d
000001a0: 5288 493e 00e2 cf3d b3d7 473e f423 bb3e
000001b0: 435c cd3e db5d 14bd e373 e13d 85b6 763e
000001c0: 6c8f 833e 817c 803e 613e 88bd 4c92 1fbe
000001d0: 9c2b 1fbe d068 183c 1143 833e 702a 16bd
000001e0: d38a c7bc 15e0 5ebe 133f 74be f327 e7bc
000001f0: 6efd 4f3e 3980 8f3e fa12 0c3a c017 353e
00000200: e85b 843e 271c e33d edb5 2b3e 3cf2 713e
00000210: 5bb3 6c3e 97e9 e83d a7ac 22be 923f 43be
00000220: 7bee babd 826c 213c f978 5cbd fe5d ef3d
00000230: 2ac7 a53c 68b0 7bbd e796 143e 9a35 563e
00000240: dd6a 973e 9f28 b23d 9436 80bd 5b87 893e
00000250: 9e6a d33d 45aa 043e 9bad 97be cc7a 84be
00000260: 92a5 34be 59dc f93c d58d a43e 0e5e 8ebe
00000270: f4ad 89be be5f a23d 4c6a 7a3e 5e91 af3e
00000280: 1b2a a5be dd46 36bd 893d 6d3d 412f 8b3e
00000290: bbde b33d 42f1 82be f40e 70bd e388 943e
000002a0: 2369 a93e 0b2f 5b3e 33ef 3e3e 84b1 8d3e
000002b0: f090 973e 5bd2 2f3e 5d07 a3bd be92 c53d
000002c0: 9639 dbbd faeb 7dbd 2344 7dbe 6787 26be
000002d0: c553 08be f96b f83d a009 7cbe e2e9 8cbe
000002e0: 77f8 1fbe f80a a7bd 0ef0 6f3d 5e40 94bd
000002f0: d84e efbd 6554 ecbb d3c6 4f3e 8095 9dbd
00000300: 3236 713e 7ec3 9c3e 025c af3e d9b8 45bd
00000310: 0996 443e 1751 4a3d f764 b43e 6328 183d
00000320: 11eb 5b3e 5e56 1a3e 6cab 5d3c 5854 1dbe
00000330: da66 2dbe 8675 553e e6e4 443e 7e56 123d
00000340: e437 c3be 7224 81bd 20e2 aa3e 5710 b03e
00000350: e48b db3d ea43 a0be 35f6 60be 1d60 a73e
00000360: e960 8d3c 58f1 5a3e cfc2 72be 7391 66be
00000370: 9404 6c3e 5734 6a3c e32c 4c3c 4ffa e33d
00000380: 82f5 e53d 41f2 2b3e 1e8b 2b3c af61 2bbd
00000390: 8e0c a93e 4630 8f3d 66ce cfbd 9c97 a23d
000003a0: a792 d4bd 3951 263e 59a0 473e b222 52be
000003b0: a01e 65be 4714 c7bd 3401 67bc 5b77 e2bc
000003c0: b9f6 14be 1636 d4bd e538 96be 6f96 85be
000003d0: 647b 60be c6d8 273e 747d 073e b911 d5bd
000003e0: 3a04 96bd 8685 8abc
-0.09441514 0.25659546 0.12488854 0.24667352 0.19160526 0.048359986 0.14798972 0.11648243
0.16809468 0.041635968 -0.07213317 -0.063101634 -0.014838424 -0.05766827 0.16231145 -0.045883976
-0.18738598 -0.27168125 -0.2020878 -0.18942885 -0.13898745 -0.10489009 -0.06845324 -0.0716686
-0.26871175 0.26778612 0.29207778 0.37411445 0.26630282 -0.10553307 -0.13009459 0.009373399
0.32771417 0.2119596 0.29421037 -0.18993333 0.089519344 -0.0837652 0.23323226 0.17439006
-0.30510348 -0.083005846 -0.2241251 -0.060938366 -0.0076065366 -0.24005634 -0.36929417 -0.2521476
-0.06391712 -0.061527178 0.33470565 0.36573377 0.18477793 -0.007293895 0.20588905 0.07855432
-0.028583132 0.29321566 0.25638044 0.25194335 -0.15670882 0.010980351 0.12241521 0.13254595
-0.14993584 -0.15945965 0.1571261 0.05329166 0.13722937 -0.054240573 0.032585353 0.080058135
0.14149797 0.07948724 -0.29414374 0.14369091 -0.12926586 -0.18421282 -0.044030223 -0.06589916
0.18539098 -0.08925244 -0.22907014 0.08653243 -0.05633633 0.19912618 0.13924779 -0.15108164
0.048526585 0.090951 -0.048790976 0.014663743 0.15273766 0.14411075 0.017184611 0.054540318
0.32723567 0.07258579 0.23201758 0.20224424 -0.13951512 -0.13409439 0.26231977 0.12253172
0.19680908 0.10150528 0.19515876 0.36550868 0.40109453 -0.03622232 0.11008432 0.24093063
0.2569536 0.2509499 -0.06652523 -0.15583152 -0.1554398 0.009302333 0.25637105 -0.036661565
-0.024358189 -0.21765168 -0.23852186 -0.028217291 0.2031152 0.28027514 0.0005343404 0.17684841
0.2585137 0.11089354 0.16768618 0.23627561 0.23115294 0.11372679 -0.15886174 -0.19067219
-0.09127518 0.00985253 -0.053826306 0.116878495 0.02023657 -0.06144753 0.1451069 0.20918885
0.29573718 0.08699154 -0.0626041 0.2686108 0.1032307 0.12955578 -0.29624638 -0.25874937
-0.17641285 0.030500578 0.3213946 -0.27806133 -0.26890528 0.079284176 0.24454612 0.34290594
-0.32258686 -0.044501174 0.057920013 0.2718449 0.08782717 -0.2557469 -0.05860801 0.29010686
0.33088025 0.21404664 0.18645935 0.27674496 0.29602766 0.17170088 -0.07960389 0.096471295
-0.10704343 -0.061992623 -0.24733023 -0.1626259 -0.13313206 0.12129969 -0.24613047 -0.27522188
-0.15622126 -0.08156389 0.058578543 -0.072388396 -0.1168496 -0.007212209 0.20290689 -0.076945305
0.2355583 0.306179 0.34249884 -0.048271988 0.19197859 0.04939374 0.3523328 0.03714789
0.2147639 0.15072009 0.01352964 -0.15364206 -0.16933766 0.20845613 0.19227943 0.035727017
-0.3812858 -0.063057795 0.33375645 0.34387466 0.107200414 -0.31301814 -0.2196892 0.32690516
0.017258124 0.21381128 -0.23707126 -0.22516422 0.23048621 0.014294705 0.012461874 0.11131727
0.112284675 0.16791631 0.01047018 -0.041841205 0.3301739 0.06991629 -0.10146789 0.079390734
-0.10379534 0.16241921 0.19494762 -0.20521048 -0.22374964 -0.097206645 -0.014099408 -0.027644804
-0.14547242 -0.103618786 -0.29340282 -0.26091334 -0.2192207 0.16391286 0.1323145 -0.10403771
-0.07325025 -0.016909372

conv1.bias f4 [10]
00000000: 4b2a 1d3d fe8f ebbc e96f 523e b1ba 173e
00000010: c6d8 ef3d 74f8 003d 881a 333e 71da 4c3e
00000020: 6670 c9bd b407 1d3e
0.03837041 -0.028755184 0.20550503 0.14817311 0.11711268 0.031486943 0.1749059 0.20005204
-0.098358914 0.1533497

conv2.weight f4 [20, 10, 5, 5]
00000000: 2d63 493c 4b5c 4cbd 2252 f93c 85b6 46bd
00000010: d0ca 443d b692 1cbd 7ea9 f3bb 63b7 d4bc
00000020: 4f80 aebc 0fec d53c e61a 10bd 4c65 88bd
00000030: 6dae cebd 40fb b7bc bb02 26bd ff34 e5bc
00000040: 4e1a 41bd fc9f 6dbc 5ce1 833b 3043 0ebd
00000050: b855 77bd 8cac 8bbd bd5b 8bbd f7f4 df3c
00000060: e8cf 37bd 15fe 1f3d ac06 9ebb 909c 3ebd
00000070: 3ef4 4f3d b3cd 343d fe71 523c 049e a2bd
00000080: abba edbd 1eb4 aabd d2c2 b6bd f80e 72bd
00000090: d4c7 93bd 77cb cbbd 1611 8ebd 0c64 acbd
000000a0: fcbf a4bd 43c3 dfbd a5b2 d1bd ab17 76bc
000000b0: f793 e0bd cbfc 3cbd fc69 eebd 8876 44bd
000000c0: 4a61 11bd da96 88bd 1744 e93d f255 1fbd
000000d0: 1c01 05bd 678e 1a3d a578 823d 0e46 8c3d
000000e0: 4c8a 4bbd 6613 6dbd 2637 c5bb 9358 d2ba
000000f0: e0cd 0b3d 7bd2 abbd 4b71 e0bc e7bd 973d
00000100: 885d 2cbd 5e92 17bd 38fc 1dbc b9f1 b83c
00000110: 6561 a23d caf9 efbd 703b ecbc 7192 b0bd
00000120: 5544 89bd cab6 20bd 6e01 f4bc 29a0 153c
00000130: 8abe 5bbd 7e3a aebd f97a 82bd ef22 903d
00000140: 184a d7bc 4e90 1abd e181 9bbc 9307 69bc
00000150: 567f 8dbd 6894 76bd 23f4 bf3c 6a00 cb3c
00000160: a1ec 50bc 6b12 b3bd bb41 443c c311 703c
00000170: 55a6 723d 987d 24bc 97ac 0c3c b9cd a7ba
00000180: f7ca 7abd 86a0 c4bd a790 84bc 8472 feba
00000190: 3af1 773d 4bb5 12bc 5186 b5bd 58c8 8abd
000001a0: e443 aabc 5aff 313c df3e f1bd 0bf0 a5bd
000001b0: 4c48 8fbd 7ed6 dcbc 13bf 123c aaa1 9ebd
000001c0: ce7f 3fbd c557 903d 25af 0d3d 78e6 74bd
000001d0: 215c c4bd ed45 0dbd 1399 dd3d ba15 dcbd
000001e0: b8c8 efbd 6dd4 43bd b01a 073d 0ab5 9d3d
000001f0: 47a4 bcbd e994 6b3b 9d1b 28bc cf51 cf3c
00000200: 1c26 a93c a1b4 11bc 030c 6e3d fc5d 51bd
00000210: 3793 0ebc 2bf6 dcbc 871f 163d c1e9 13bc
00000220: 0dfd dfbd 878d 413c 4dab bdbb 057e c6bd
00000230: 10f0 88bd 3f73 0ebe 0299 3bbd 2865 80bc
00000240: 635a d8bc c150 56bd 304e b4bd 858f c23c
00000250: 9d84 813d e84d c8bd 5770 9b3d 1ad0 6a3c
00000260: a839 ccbd 6728 de3c c7cb 5fbc f97c dc3c
00000270: 92eb adbd 6ede 863d ab03 fb3d 8c2f 273e
00000280: d2bd c03c 47e2 e83c 560d 543d dde2 c43d
00000290: 45b1 313d 4a31 63bc 127d 7cbc ddfb 713d
000002a0: 3392 9b3d 64a8 f8bc 8749 813c daae 27bd
000002b0: 738a b03d d2ca fe3b 5aa0 c9bd a753 2e3d
000002c0: 93eb b8bd f056 c73c df38 97bd af6b f73c
000002d0: 5510 08bb df1c b93c 8bd7 3a3c d9ad af3d
000002e0: b2b7 0ebd 2ba8 9fbd a7a0 723c 8907 6b3d
000002f0: 9119 813d 6edf 6fbd e0b4 0e3d 0c9c a93c
00000300: f405 43bd c90d aabd c808 a43c 257c 13bd
00000310: 32c1 9fbb e114 ffbd 7141 04bc 20ca d63c
00000320: 3444 583d 137f cc3d 81a2 4dbd 9137 4abd
00000330: 8a94 0fbc 38f6 023d cef9 3e3d 2562 9cbd
00000340: 9d88 3f3c f24e 9c3d 88ba 113e 5c62 803d
00000350: d896 08be 42b3 493d c02f b63d 256a 083d
00000360: 8675 4e3b 0fdf 95bd bd80 a73d b379 113e
00000370: 9239 0a3e ee37 15bd cd93 3cbd 9fc6 f23d
00000380: 18d9 f43d 19d8 3f3d 30a2 063d 9770 41bc
00000390: fbe0 443d b168 45bd 78ae 903c 28c7 473c
000003a0: 2e71 043c 21bd 43bd e412 88bd 402e 603c
000003b0: a214 99bd aa15 babd 9192 b1bd d6fe 31bd
000003c0: 6a25 02bd 50d9 5ebd 9242 57bd 6b52 d9bd
000003d0: 7b42 793c c0da 23bd 56ba 7dbd a7c6 983c
000003e0: e5eb 5dbd 9191 163d ff16 e1bb fe9e d3bd
000003f0: c2ee a5bd 7217 46bd 3be1 c1bc 830a 8dbd
0.012291712 -0.049892705 0.030434672 -0.048513908 0.04804498 -0.038225852 -0.0074359765 -0.025966352
-0.021301417 0.026113538 -0.035181902 -0.06659946 -0.10091863 -0.022458673 -0.040529948 -0.027979372
-0.047144227 -0.014503475 0.0040246677 -0.034732044 -0.060384482 -0.0682002 -0.06804607 0.027338488
-0.04487601 0.03906067 -0.0048225727 -0.04653603 0.050770037 0.044141483 0.012844561 -0.07940295
-0.1160787 -0.08335136 -0.08923878 -0.059096307 -0.072158486 -0.09950917 -0.06936853 -0.0841752
-0.080444306 -0.10925915 -0.10239152 -0.015020291 -0.10965722 -0.04613952 -0.11641309 -0.047964603
-0.035493173 -0.06669398 0.1138994 -0.038900323 -0.03247176 0.03773346 0.06370667 0.06849299
-0.049692437 -0.057879828 -0.006018537 -0.0016048126 0.034131885 -0.08389755 -0.027397772 0.07409268
-0.042081386 -0.03700482 -0.009642653 0.0225762 0.07928733 -0.11717565 -0.028836936 -0.086216815
-0.067024864 -0.03923682 -0.029785838 0.009132423 -0.05364851 -0.0850725 -0.063711114 0.07037913
-0.026280448 -0.037735276 -0.01898283 -0.014222997 -0.06909053 -0.060200125 0.023431843 0.02478047
-0.012751729 -0.08743747 0.011978562 0.014652672 0.059240658 -0.0100397095 0.0085860705 -0.0012802399
-0.06122872 -0.0960093 -0.016182257 -0.001941279 0.060532786 -0.008954356 -0.088635094 -0.06776494
-0.020784326 0.010864103 -0.1177957 -0.08102425 -0.069962114 -0.026957747 0.008956688 -0.07745679
-0.046752743 0.07047991 0.03459086 -0.059790105 -0.09587885 -0.034490515 0.10820212 -0.107463315
-0.11708206 -0.047810007 0.032984436 0.07700546 -0.09211021 0.0035946912 -0.01026049 0.025307564
0.020648055 -0.008893163 0.058116924 -0.05111502 -0.008702091 -0.02697285 0.03665116 -0.009027899
-0.109369375 0.011813528 -0.005788243 -0.09692005 -0.06686413 -0.1391115 -0.045800216 -0.015673235
-0.026410287 -0.052323107 -0.088039756 0.023750076 0.06324122 -0.097804844 0.075897865 0.014331842
-0.099719346 0.027118875 -0.013659424 0.02691506 -0.08492197 0.06585394 0.12256559 0.16326731
0.023528013 0.02842821 0.05177053 0.09613583 0.043381948 -0.013866732 -0.015410678 0.059078086
0.07596245 -0.030353732 0.01578213 -0.040938236 0.08620157 0.007775643 -0.09845038 0.042560246
-0.09029307 0.024333447 -0.07383894 0.030202715 -0.0020761688 0.022596775 0.0114039285 0.08578081
-0.034843154 -0.07795747 0.01480881 0.057380233 0.063037045 -0.05856269 0.034840465 0.020704292
-0.0476131 -0.083034106 0.020023718 -0.036007065 -0.0048753256 -0.12455154 -0.008072243 0.026219428
0.05279942 0.09985175 -0.050203804 -0.0493694 -0.008763442 0.031973094 0.04662495 -0.07635907
0.011690286 0.07632245 0.14231312 0.062687606 -0.13338792 0.04924322 0.08895826 0.033304352
0.0031503155 -0.07317936 0.08178852 0.14206581 0.13498524 -0.03643029 -0.04603939 0.1185429
0.1195547 0.046836946 0.032869518 -0.011806629 0.04806612 -0.048195545 0.017661318 0.012193479
0.008083625 -0.04778779 -0.06644228 0.013682902 -0.074746385 -0.09086163 -0.086705334 -0.04345592
-0.031773962 -0.054406464 -0.05255372 -0.10611423 0.015213604 -0.040003538 -0.061945282 0.018649412
-0.054180045 0.036759917 -0.0068691964 -0.1033306 -0.0810218 -0.048362203 -0.023666969 -0.068867706

conv2.bias f4 [20]
00000000: 3655 033d 5d0d 4abd 20aa a3bc aded 12bd
00000010: 3ae6 50bd c587 72bc a952 263c b3e5 19bd
00000020: 3c91 81bd 8525 1b3d 3ffc 21bd b919 85bd
00000030: a01d b5bc 347c 92bc e8e3 76bd 1df4 01bb
00000040: 4cdf 1cbd 9c0f 95bc 8003 3f3c f6d9 a53c
0.032063685 -0.04932915 -0.019978583 -0.035871197 -0.05100081 -0.014802878 0.010151544 -0.037572574
-0.063265294 0.03787758 -0.0395472 -0.06499047 -0.022108853 -0.01788149 -0.060275942 -0.001982934
-0.03829889 -0.01819592 0.011658549 0.020245533

fc1.weight f4 [50, 320]
00000000: 9dcd 2f3d 31b6 1fbc b848 cd3d 2d64 553d
00000010: e870 17bc c7ae 0dbc 55d0 e83c 6171 813b
00000020: 0af0 87bc 9d28 cabc 55de f3bc a070 35bc
00000030: 248c 0a3c 4993 b53d 6ee7 beb9 258b 5d3d
00000040: eeed acbc ae63 7fbd 8096 073d 16e0 883c
00000050: ff33 233b c815 f0bc 1f21 aa3d bd90 433d
00000060: 36c4 513d 0097 ddbb b92f 003d 6700 8e3d
00000070: 12db 8dbd 93da 98bc 45eb 193c 078e 87bd
00000080: 14f8 0d3d f97e 173c 3471 dcbc 429c be3c
00000090: 3dde 4b3c ee3e 083d 31d0 13bd d5f9 40bd
000000a0: 699e 44bd 68fc 65bd 8708 923d 45aa 043c
000000b0: 0000 10bd 5f67 613d 7bca ad3d 8cc1 143c
000000c0: 82ae 323b ce30 473d 9500 0ebd a222 793c
000000d0: 7f0e 18bd 9426 11bd 84b0 28bd d9e1 1b3c
000000e0: 8752 aebd 2c4a 753c f80e 1c3d e632 71bd
000000f0: a381 673d b30d e63d a198 4c3d 5b37 cdbc
00000100: e300 44bd dbd6 debc 5ff7 c5bc 20cb a1bb
00000110: 46c3 7cbd 3bf9 a5bc a82a bd3a 7c1d 5bbc
00000120: 09a1 ebbc c04b 623d fcee 693b 3918 20bd
00000130: 5672 ae3c b1d4 f03d e3ee 243d 0d3f 96bd
00000140: 8f38 79bd cc18 9dbb e770 74bc 7e6e 0d3d
00000150: ab87 f7bc 47e4 a23c 0903 473c 7f07 bbbc
00000160: 9f46 e53c 08de 863d ee0e 773d 3e70 17bd
00000170: 7678 df3c 6e99 183d f548 73bd c6ac bbbd
00000180: bbaa 1d3d 9e9a 88bb 755f 1f3c 6de6 4a3d
00000190: 3fb8 bfbb e25c 5bbd 90ed 363d ecad 1d3d
000001a0: dff4 673d b2f9 013d 6660 04bd 460a 8e3c
000001b0: 709a 0e3d 9240 a53c fd9b 6d3d 2666 af3c
000001c0: 2be9 03bd 098f d6bc 26d4 233c 8a0a 983d
000001d0: 80cc fb3c ffab a53d 727f 56bc 9dc0 31bc
000001e0: e7d7 e83c 960b 1bbc 6492 b3bc 1e6b fb3b
000001f0: 604d bbbd a922 8ebd 6f23 a13c 96f5 86bd
00000200: d031 2d3d d013 423d 62f8 ef3c 921c f43c
00000210: be8d 323d 98cb dbbc eb92 8bbc 5675 1d3d
00000220: b965 d7bb c596 e23c 284d 4dbc 33ae 7ebb
00000230: 2aa4 12bd 6563 85bc c4cb 223d 3fe9 6b3d
00000240: e383 b03a 73d6 f43b abe3 6d3d ced0 a4bc
00000250: 6409 983c f67a c63c 9009 673b 3aa0 14bc
00000260: e766 a9bc ef9c e3bc 36e2 b0bb 9e84 92bb
00000270: a100 a2bc 9a41 073c cf8f 27bd 30ba 04bc
00000280: 8ea2 49bd 758b 623a 6e33 173d 8f81 e8bc
00000290: 70d9 9abd 257a 423d 05aa cdbc 0a8a 153d
000002a0: 09da a43d 2dbb 393b f21b 783a 1f7c cbbc
000002b0: b811 753d fa08 34bd dd0d 3ebb 1fdc 20bd
000002c0: 7a28 95bb f009 863b 5cfc 773d 53f7 16ba
000002d0: 81b3 133d 5bd4 a3bc 38cc 483d 7cb4 b5bc
000002e0: 398e 1fbc 98da 533c a209 3cbd b0b4 2bbd
000002f0: 03db 7bbd 4a6a 04bd 054d 54bd 4783 27bd
00000300: 9463 323c d5b2 753d 5c14 df3c 62e9 533c
00000310: 074a 0b39 f5af 72bc 0bc7 593b 07b3 bdbc
00000320: 2d03 e13c ac59 4b3c 16e9 143d 97e4 59bc
00000330: 404a abbd 8a92 933c f6e2 893d 276c 393d
00000340: 1317 973d 2e76 a4bc 0744 103d 6b10 663c
00000350: a7f6 42bd d05e 743c 2221 303c 47ea 3fbd
00000360: 81f5 25bd 27f7 433d 5e19 0f3d dcf7 96bc
00000370: 2df3 1c3d 89b6 cc3c 835d 3fbd afb4 53bd
00000380: a3f7 f33c 9bc8 863b a17f b53c 9024 93bc
00000390: 1a84 8cbd fb4c cfbc 0f07 5dbc ae03 86bd
000003a0: 2a83 c7bc 3f28 573b 895f 90bc 153d 4c3c
000003b0: 7a28 b73d e36f 3e3d b577 85bd d8b0 5cbd
000003c0: a064 51bd 497c a43d 30a2 473c 1f13 8a3d
000003d0: 3511 6ebd c5b7 8fbc 32be bb3c eaa6 28bd
000003e0: 28ff 22bd 5d89 2cbc cc63 b8ba f299 97bd
000003f0: bbf8 14bd 53f8 413d 1b63 96bd c491 75bd
0.042920697 -0.009748028 0.100236356 0.05209749 -0.009243228 -0.008647627 0.028419653 0.0039502834
-0.016593952 -0.024677569 -0.029769102 -0.011074215 0.008456264 0.08865983 -0.00036412053 0.054087777
-0.021109547 -0.06235092 0.033102512 0.016708415 0.0024902818 -0.029307261 0.083070986 0.047745455
0.051212512 -0.0067623854 0.031295512 0.069336705 -0.0692655 -0.018658912 0.0093944715 -0.066188864
0.034660414 0.009246581 -0.026909448 0.023267869 0.012443122 0.03326314 -0.03608722 -0.04711326
-0.048002634 -0.056148916 0.07130533 0.008097236 -0.03515625 0.055030223 0.08485886 0.009079348
0.002726466 0.04863053 -0.034668524 0.015206011 -0.0371232 -0.03543718 -0.041183963 0.0095142955
-0.085118346 0.014971297 0.038100213 -0.05888643 0.056520116 0.11233082 0.049950246 -0.02505081
-0.04785241 -0.02720206 -0.024165807 -0.0049375445 -0.061709665 -0.020260444 0.0014432268 -0.013373729
-0.028763311 0.055248022 0.0035695424 -0.0390856 0.021294754 0.11759318 0.040266883 -0.07336245
-0.060844954 -0.004794216 -0.014919496 0.0345292 -0.030216059 0.019884242 0.01214672 -0.022830723
0.027987776 0.06585318 0.060316972 -0.036972277 0.02727912 0.037255697 -0.05939575 -0.09163813
0.0384929 -0.0041688224 0.009727349 0.049536157 -0.0058508213 -0.053555377 0.04466015 0.038495943
0.05663001 0.03173227 -0.032318495 0.017338883 0.03481525 0.020172391 0.05801009 0.021411013
-0.03220479 -0.026191251 0.009999311 0.07423885 0.030737162 0.08089446 -0.013091909 -0.010849145
0.028423263 -0.0094632115 -0.02192039 0.0076726815 -0.091456175 -0.06940205 0.019670216 -0.065898106
0.042283833 0.047382176 0.029293243 0.02979878 0.043592207 -0.02683048 -0.01703783 0.03844198
-0.0065734056 0.027659783 -0.0125306025 -0.0038861155 -0.03580109 -0.016282747 0.039745107 0.057595488
0.001346704 0.0074718534 0.05807845 -0.020119097 0.018559165 0.024228554 0.0035253502 -0.009071404
-0.02067895 -0.027784793 -0.00539806 -0.0044713756 -0.01977569 0.008255387 -0.04090863 -0.008101031
-0.04922729 0.00086419965 0.03691428 -0.02838209 -0.07561004 0.047479767 -0.025105486 0.036508597
0.080493994 0.0028340325 0.00094646134 -0.024839459 0.05983135 -0.043953873 -0.0028999962 -0.039272424
-0.0045519443 0.00409054 0.060543403 -0.00057589 0.03605986 -0.01999872 0.049022883 -0.022180788
-0.009738498 0.012930535 -0.045907624 -0.041920364 -0.061488163 -0.032327928 -0.051831264 -0.04089668
0.010887999 0.059985 0.027231388 0.012934061 0.0001328365 -0.014812459 0.003323021 -0.023156656
0.027467335 0.012411516 0.0363551 -0.013299129 -0.083637714 0.018014211 0.067327425 0.045269158
0.07377448 -0.020075884 0.035221126 0.014042 -0.047598507 0.014915183 0.010750087 -0.046854284
-0.040517334 0.047843125 0.0349363 -0.018428735 0.038317848 0.024989383 -0.04672004 -0.051685985
0.029781168 0.0041132695 0.022155585 -0.01796177 -0.06861134 -0.025305262 -0.013490452 -0.065436706
-0.024354536 0.0032830385 -0.01762368 0.012465735 0.08943267 0.046493422 -0.06516973 -0.05387959
-0.051121354 0.08031518 0.012184665 0.06741928 -0.05812188 -0.017543683 0.02291784 -0.041174807
-0.039794117 -0.010530797 -0.0014067828 -0.074024096 -0.03637002 0.04735596 -0.073431216 -0.059953466

fc1.bias f4 [50]
00000000: d5e1 343d 63b9 fc3c fb34 67bb 694e 1cbd
00000010: 57ca 5a3c 88f2 463b 7a5c 1f3d 6e65 0a3d
00000020: d7d0 e0bb bec0 35bc c3d6 9b3b 3c4e 1fbd
00000030: 106b 903d 8abe 373c 2921 643d e3d4 05bd
00000040: f9f0 bf3b d5b1 473d b365 853c df0c 9b3d
00000050: 6d1b 7f3d cce4 003c f04d 3b3d 346b bdba
00000060: c590 0cbd 3835 90bc 87bc 26bd 7fd5 683d
00000070: 6b0a f63b 432e 43bd ca6e 0cbd 8672 573d
00000080: 42e2 57ba ec11 e9bc c94e 703d e380 d33b
00000090: bcb6 75ba f446 9b3d 9639 3a3d 44da 6ebd
000000a0: 6c9b da3a e38b e53a 86c7 7cbd bca6 bbbc
000000b0: f03e 703d fe70 803c f166 753d f9dc a83b
000000c0: 1d92 e0bb 4afb 8cbb
0.044160683 0.030850118 -0.0035279382 -0.038160715 0.013353906 0.0030356962 0.038906552 0.033788137
-0.006860833 -0.011093317 0.004755826 -0.03889297 0.070516706 0.011214862 0.055695686 -0.032673728
0.0058575836 0.04875358 0.016283846 0.07570814 0.062282015 0.007867049 0.045728624 -0.0014451505
-0.03431775 -0.017603502 -0.040707137 0.05684423 0.007508566 -0.04765154 -0.034285344 0.052599452
-0.0008235314 -0.028450929 0.058668885 0.0064545735 -0.0009373238 0.075818926 0.045465074 -0.058313623
0.0016678399 0.0017513003 -0.061713718 -0.022906654 0.058653772 0.015678879 0.059912626 0.005153295
-0.0068533556 -0.004302417

fc2.weight f4 [10, 50]
00000000: aa65 81be 3c6c 32be c83b 09be 3221 38be
00000010: 1413 bd3d d679 f93c e8e3 14be 2be0 10be
00000020: 23d1 e83d cacc 45bd faf1 223d 878a febc
00000030: c964 5c3e d5ca 843e d083 323e e827 81bd
00000040: 3c0f 393e 21b0 7fbe 170b 0fbe 6f6c 43be
00000050: 8b44 30be 9e5d 43be 0613 3cbe fac0 6dbe
00000060: 542a 113e be9e 853d 3e6e acbd c55c acbd
00000070: 1a19 003e b8f8 433d 3206 23be 2a1b 213e
00000080: 0f97 183e 7388 a03b f73b 0dbd 8b47 51be
00000090: 17c7 f9bd 0227 23be c4a2 49bd a5af 90bd
000000a0: 73d6 b23d 81f2 993e 9964 02bd c2a7 a1bd
000000b0: 0eda 783d 1f07 303d 631b 3e3e 5f3b 643e
000000c0: 96d2 0fbe 6d28 f93d 87d8 0a3e 9109 1c3e
000000d0: 8979 82be ca7b 0a3e 6217 dbbc 5798 4ebe
000000e0: 74f7 ae3d 1420 973c 07a1 1cbe 5563 85bd
000000f0: 8c11 333e 187a 5bbe a852 de3d 7cbb 2fbd
00000100: b518 5cbe 9daf 60bc 089a 0ebe d5f0 1c3e
00000110: 5729 393e a78b 4c3e 9a36 0f3e 3c73 80be
00000120: c7c5 86be 2f0b 293e 50ee 3a3c b921 9f3e
00000130: c2b4 c63d e9da 113e 8df1 46be 62f3 04be
00000140: 02da 273e b7b9 1fbd ec1b 0fbe da86 30be
00000150: 09c7 95bd fd7f 433e 3b8d d73c c79b 223e
00000160: 2b9c 103e a39d 5bbe 188e 293e b322 eebd
00000170: d32e 00be dc1d 533e d972 59be 2ac0 e43c
00000180: a941 fe3d 5699 c0bd 3799 d0bd 665d 31be
00000190: 5cea 2fbe 2898 e03d 77d4 1c3e 54a4 273d
000001a0: c5f2 e93d 0d5f 833d 4338 ec3d b225 fc3d
000001b0: 55d4 a93d eca2 533e 207b fa3c 0308 013e
000001c0: 88bf a8bb 981f 04bd 5041 9abd 8024 11be
000001d0: 1a5c c4bd aae9 023e 12eb 01be e86f 66be
000001e0: 34d4 00be f4cc 92bd ed4d 10be 8985 1c3e
000001f0: c04b bcbd 8f23 573d ccf9 0fbe 1af4 b3bd
00000200: 18b0 f3bb 87bd abbd d85b 363e 9957 bd3d
00000210: 17e6 e0bd bbff 2fbe 22ca 203e dad3 9dbd
00000220: 5f87 1e3e ccee 613e b640 0fbe 01e8 32bd
00000230: 526d a5bc 6eec 7a3e 3cd6 f23d 81d8 7dbc
00000240: 657a c0bd cb77 df3d af81 fc3d 0978 2e3e
00000250: 7cc6 ce3d f23d 7a3d 4d2c 9c3d 6ca8 36be
00000260: aa5b 153d 6055 023e 997c c2bd 147b 5c3c
00000270: d7a8 0ebe a7ee 493e ba22 06be dcaa 0fbd
00000280: 534b 4cbc f48a b9bd a2e1 27be e89f b9bc
00000290: e53a a6bd d783 1a3e 6e3b e9bb d8e8 223e
000002a0: f804 f33d 3302 0dbe ccf1 2fbe bf77 05be
000002b0: fb05 013e 289b babd c71f 283e bc72 14be
000002c0: 3acc aebd 85fd 453e d651 c1bd 82b7 0a3e
000002d0: 5f4d 373e 0a13 1a3e 543b 173e a8e6 5cbd
000002e0: 8410 3dbe 55eb d5bd fdaf 123e c8a0 453e
000002f0: 40be 30be ce5f 6e3e ba40 0abd 4e3a 49bc
00000300: 2b1c e0bd fdde a6bd 1c8e 033e 7f21 f93d
00000310: 1c99 fdbc 6ed6 b9bd 4243 183e eaab c13d
00000320: 595d 1f3e dea8 1e3e fb95 303e c795 a3bd
00000330: ad02 c43d b63d 82be ebab 663e 4902 1d3e
00000340: 7f3a 063e 1d9a b6bd 7ec1 7e3e 48f6 693e
00000350: d250 cbbd ee88 1fbd 405a e2bd 126c 34be
00000360: 9394 61be 4f23 40be f370 5b3e 366a 7d3d
00000370: 5d5d e63d 78a1 3f3e b85d 333d d0ea babd
00000380: 7bc8 a1bd b5a7 e0bc 17eb c93c 3eb8 d03d
00000390: 6436 6cbe b49b 2dbe fed7 0cbe c66c 61be
000003a0: 85d6 7bbd 427a 763e 5c3a 873e 8bb9 0b3e
000003b0: 5225 01be fd67 ccbd 93af 993d e38a 703c
000003c0: 5bf2 3bbe 6819 6b3d 72d3 86bd 1a00 e7bd
000003d0: 3d12 253e 22e3 09bd a6cd 75bb c7b0 27bb
000003e0: 9520 e4bd e9ba 77be 2a42 d33d 4995 12bb
000003f0: fa15 74bd 9c04 4abe 9898 083e 803c 3dbe
-0.25272876 -0.174241 -0.13401711 -0.17981413 0.092321545 0.030453604 -0.14540064 -0.14148013
0.11368015 -0.048291005 0.039781548 -0.031071914 0.21522821 0.25936 0.17433095 -0.0630644
0.18072218 -0.24969532 -0.13969074 -0.19084333 -0.17213647 -0.19078681 -0.18366632 -0.23218146
0.14176303 0.06524418 -0.084194645 -0.08416132 0.12509575 0.04784462 -0.15920332 0.15733019
0.14901374 0.0048990785 -0.034481015 -0.20437448 -0.121961765 -0.15932849 -0.04922749 -0.070647515
0.08732309 0.30067828 -0.03183422 -0.078933254 0.06075483 0.04297554 0.18565135 0.22288273
-0.14045176 0.12165914 0.13559161 0.15238024 -0.2548335 0.13523784 -0.026744548 -0.201753
0.08543292 0.018447913 -0.15295802 -0.06513087 0.17487162 -0.21433294 0.10855609 -0.04290341
-0.214938 -0.0137137445 -0.13925946 0.15326245 0.18082176 0.19975148 0.13985673 -0.25087917
-0.26322767 0.16508172 0.011409357 0.31080416 0.097024456 0.14243664 -0.19428082 -0.12983468
0.16391757 -0.03899547 -0.13975495 -0.17238942 -0.073133536 0.19091792 0.026312461 0.15879737
0.14122073 -0.21446852 0.1655811 -0.11627712 -0.12517862 0.20616859 -0.21235217 0.027923662
0.124148674 -0.094042465 -0.101854734 -0.17320785 -0.17179245 0.109665215 0.15315424 0.0409282
0.11423258 0.06414614 0.115341686 0.12311877 0.08292452 0.20667619 0.030576289 0.12600712
-0.0051497854 -0.032256693 -0.075319886 -0.1417408 -0.095878795 0.12784448 -0.12687328 -0.22503626
-0.12580949 -0.07167998 -0.14092226 0.15285315 -0.09194136 0.052524146 -0.14060134 -0.08786793
-0.0074367635 -0.08385759 0.17808473 0.092452236 -0.10981386 -0.17187397 0.15702108 -0.07706423
0.15481327 0.2206375 -0.13989529 -0.043678287 -0.02019373 0.24504253 0.11857268 -0.015493513
-0.09398345 0.109115206 0.12329423 0.17037977 0.10096452 0.061094232 0.07625637 -0.17837685
0.03646437 0.1272788 -0.09496421 0.0134570785 -0.13931595 0.19719945 -0.13099185 -0.035075054
-0.012469131 -0.09059706 -0.16394666 -0.022659257 -0.08116702 0.15089355 -0.0071176803 0.15909135
0.11866182 -0.1377037 -0.17182082 -0.13033961 0.12599938 -0.09111625 0.16418372 -0.14496893
-0.08535047 0.19334991 -0.09439437 0.13546565 0.17900608 0.15046325 0.14768726 -0.05393091
-0.18463331 -0.10445277 0.14324947 0.19299614 -0.17260075 0.23278734 -0.033753134 -0.012281967
-0.109428726 -0.081480004 0.12847179 0.12164592 -0.030956797 -0.09074102 0.14869407 0.09456618
0.15562953 0.15494105 0.17244713 -0.07987552 0.09570823 -0.25437707 0.22526519 0.15332903
0.13108252 -0.089161135 0.24878499 0.22847855 -0.099275246 -0.038948946 -0.1105237 -0.1761935
-0.22029333 -0.18763469 0.21429805 0.06186887 0.112482764 0.18713939 0.04379055 -0.09126818
-0.07899567 -0.027423719 0.024648232 0.101913914 -0.23067623 -0.16953927 -0.1375427 -0.2201415
-0.06148388 0.24070075 0.26411712 0.13644998 -0.12611893 -0.09980772 0.07504191 0.014681551
-0.1835417 0.057397276 -0.06583299 -0.11279316 0.16120239 -0.033663876 -0.003750661 -0.0025587545
-0.11139027 -0.24192394 0.10315354 -0.0022366813 -0.05959127 -0.19728321 0.1333946 -0.1848011

fc2.bias f4 [10]
00000000: 677c 8a3d 27d3 053e b443 93bd e3d6 11be
00000010: 17a7 aebd 6915 c8bc b94f 83bc 72a3 a5bd
00000020: 05b7 4c3e fc73 c23d
0.06762009 0.1306883 -0.07190648 -0.14242129 -0.085279636 -0.024424272 -0.016029226 -0.08087815
0.19991691 0.094947785
